transforms/experimental/mosaic_TransformerResNextNetwork_Pruned03.pth (torch_old, 44967 bytes, 58 tensors)

ConvBlock.0.conv_layer.weight f4 [9, 3, 9, 9]
0	0x3e4c804d	0.19970818
1	0xbd03f604	-0.03221704
2	0x39d8547e	0.00041261682
3	0xbd705f32	-0.058684535
4	0x3d50e8f4	0.05100341
5	0x3af91f28	0.0019006478
6	0xbcf64495	-0.030062
7	0x3a9006e5	0.0010988383
8	0x3e6be282	0.23035625
9	0x3e64e79c	0.22353977
10	0x3ce2a4b9	0.027666437
11	0xbdacd2b2	-0.084386244
12	0xbd0f4331	-0.034976188
13	0x3d72aa15	0.059244234
14	0x3d3a1737	0.045432296
15	0xbc92dc08	-0.017927185
16	0xbca23043	-0.019798404
17	0x3e255869	0.16147007
18	0x3eb38917	0.3506553
19	0x3e46dffd	0.19421382
20	0x3dc47112	0.09591879
21	0x3db54f93	0.08853068
22	0x3d2cc8da	0.042183734
23	0x3db786b9	0.08961243
24	0x3d916fb2	0.07101382
25	0x3d9d4574	0.07679263
26	0x3e39001a	0.18066445
27	0x3e15cee6	0.14629707
28	0x3e2681c2	0.16260436
29	0x3da049ee	0.07826601
30	0x3d1c7426	0.038196705
31	0x3cbc92dd	0.023019249
32	0x3dee70e6	0.116426274
33	0x3e2b4a92	0.16727665
34	0x3cbc1986	0.02296139
35	0x3cd44049	0.02590956
36	0xbd8af3d8	-0.06784791
37	0x3dfb086b	0.12257465
38	0x3e1581ae	0.1460025
39	0x3e1760b9	0.1478299
40	0x3e104e78	0.14092433
41	0x3e3a8a5a	0.1821684
42	0x3d4aad4b	0.04948167
43	0x3d214371	0.039370958
44	0xbe03b74c	-0.12862891
45	0xbda60f14	-0.08108345
46	0x3d3edbda	0.046596386
47	0x3d6a115a	0.057145454
48	0x3c86bc6a	0.016447265
49	0xbd5c97d8	-0.053855747
50	0x3d3aadba	0.045575835
51	0x3baf29e5	0.0053455704
52	0xbdfb4f88	-0.12271029
53	0xbec4b679	-0.38420466
54	0xbcb68b9f	-0.022283373
55	0xbdf59e78	-0.11993116
56	0xbe0354d7	-0.12825333
57	0xbe10365e	-0.1408324
58	0xbdba9619	-0.0911066
59	0xbd6a6a97	-0.05723056
60	0xbdf9915a	-0.12185927
61	0xbdcf050c	-0.101083845
62	0xbe90427f	-0.28175732
63	0xbd80b879	-0.06285185
64	0xbd83f7c5	-0.06443743
65	0xbe04e5c7	-0.12978278
66	0xbd852a39	-0.06502194
67	0xbda10ae7	-0.078634076
68	0xbd187cb0	-0.037228286
69	0xba895ff5	-0.0010480868
70	0xbd078668	-0.033087164
71	0xbc579783	-0.013158682
72	0xbe8b6873	-0.27228126
73	0xbdd629d1	-0.104571946
74	0xbdbf3f78	-0.093382776
75	0xbdde0e2e	-0.10842548
76	0xbd7554a9	-0.05989519
77	0xbd099db8	-0.033597678
78	0x3bbdf214	0.00579668
79	0x3cceed71	0.025259705
80	0xbd33e50d	-0.04391961
81	0x3eb26103	0.3483964
82	0x3dee75e0	0.116435766
83	0xbbf11743	-0.0073575093
84	0x3cc86f89	0.024467247
85	0x3c9d5d7b	0.019209614
86	0x3da47600	0.08030319
87	0xbd0f3f7a	-0.034972645
88	0x3d39b488	0.045338184
89	0x3e9cd530	0.306314
90	0x3eaa3091	0.33240178
91	0x3c8f2901	0.017475607
92	0xbd0d920e	-0.034563117
93	0xbd1ead62	-0.03873957
94	0x3d5f49c1	0.054513697
95	0xbd999982	-0.074999824
96	0x3d4eb373	0.050464105
97	0xbc826750	-0.015918404
98	0x3e37834e	0.17921183
99	0x3e8b7e2d	0.27244702
100	0x3e0fb21d	0.14032789
101	0x3dbfdab5	0.09367887
102	0x3dac3fdd	0.084106185
103	0x3d479066	0.048721693
104	0x3d156daf	0.036481556
105	0x3da501ab	0.08056959
106	0x3da97680	0.08274555
107	0x3e774afc	0.24149698
108	0x3d15f0b4	0.036606506
109	0x3e0a2c51	0.13493468
110	0x3dd379df	0.103259794
111	0x3c78127d	0.015141127
112	0x3dc2c565	0.09510306
113	0x3dd70cec	0.105005115
114	0x3e1a0c5a	0.15043774
115	0x3d88a5c8	0.06672245
116	0x3b19c7ea	0.0023465105
117	0xbe1b844d	-0.15187187
118	0xbe0a3b80	-0.1349926
119	0xbc150588	-0.009095557
120	0xbc8b7fa2	-0.017028634
121	0x3c40c6a9	0.011766114
122	0x3c5b9918	0.0134032
123	0x3d750e4a	0.05982808
124	0xbcdc8711	-0.026919873
125	0xbe950b40	-0.29110146
126	0xbe8b7003	-0.27233896
127	0xbe0c8e65	-0.13726194
128	0xbe20364f	-0.15645717
129	0xbd81e310	-0.06342137
130	0xbd5c6861	-0.05381048
131	0xbd565876	-0.052330457
132	0xbdf65335	-0.12027589
133	0xbe825236	-0.25453347
134	0xbeddb171	-0.4329944
135	0xbe639d4b	-0.22227971
136	0xbe1df655	-0.15426
137	0xbe451696	-0.19246897
138	0xbe69053a	-0.227559
139	0xbe254c10	-0.16142297
140	0xbe6527c2	-0.22378448
141	0xbe44e03c	-0.19226164
142	0xbdf5cf28	-0.120024025
143	0xbe8cbecb	-0.27489313
144	0xbdc1a475	-0.09455196
145	0xbdafbfd3	-0.085815094
146	0xbe1cb09f	-0.1530175
147	0xbde7de07	-0.11321645
148	0xbdd9ad50	-0.1062876
149	0xbd71339f	-0.05888712
150	0x3d8435c6	0.06455569
151	0x3c7620b2	0.015022444
152	0xbbdc3d3c	-0.006721167
153	0xbe882ead	-0.2659811
154	0xbd8ddaf4	-0.069265276
155	0xbd682f45	-0.056685705
156	0xbd178cde	-0.036999576
157	0xbdc712e8	-0.09720403
158	0xbd4e04b0	-0.05029744
159	0x3daaf659	0.08347768
160	0x3d8e09d7	0.069354706
161	0x3d818a6a	0.063252285
162	0x3ec7de23	0.39036664
163	0x3e117025	0.14202936
164	0xbc00d2cf	-0.007862761
165	0x3b95ae54	0.0045679007
166	0x3d4294ad	0.04750507
167	0x3bf20bb2	0.007386648
168	0xbc731c9a	-0.014838362
169	0x3d7a0a6d	0.0610451
170	0x3ebc38f2	0.36762196
171	0x3eab6e3e	0.33482546
172	0x3cdf5fa6	0.027267288
173	0xbd200c8f	-0.039074477
174	0xbd141fc4	-0.036163107
175	0x3dbe4364	0.092901975
176	0x3d1075c4	0.03526856
177	0x3bca25fd	0.0061690793
178	0x3dadc4bd	0.084847905
179	0x3e6fe532	0.23427275
180	0x3e96d6df	0.2946081
181	0x3e7df9c1	0.24802305
182	0x3cafc821	0.021457734
183	0x3dd4a6d3	0.10383382
184	0x3d57db7f	0.052699562
185	0x3d912943	0.07087948
186	0x3dc24d54	0.094874054
187	0x3e11a661	0.14223625
188	0x3ea587c9	0.32330158
189	0x3d7b0377	0.0612826
190	0x3dc78d65	0.09743766
191	0x3d081e70	0.033232152
192	0x3d8e4dab	0.06948408
193	0x3d7d9e5a	0.061918594
194	0x3e042b00	0.12907028
195	0x3e0c16d4	0.13680583
196	0x3dbb48ee	0.091447696
197	0x3d88327c	0.06650254
198	0xbe18ae5c	-0.14910263
199	0xbda2866c	-0.07935795
200	0x3c351bca	0.011053989
201	0xbcee0c33	-0.029058551
202	0x3d29a8fd	0.041420925
203	0xbc1146b7	-0.008866957
204	0x3d6087a5	0.05481686
205	0xbc8e3782	-0.017360453
206	0xbe5a0040	-0.21289158
207	0xbe9d576a	-0.30730754
208	0xbe615799	-0.22006072
209	0xbdc81c5e	-0.097710356
210	0xbdb910b2	-0.090363875
211	0xbe1419d0	-0.14462972
212	0xbdd7aceb	-0.10531028
213	0xbe26ca05	-0.16288002
214	0xbe024619	-0.12722053
215	0xbecb6605	-0.39726272
216	0xbe4caba3	-0.19987349
217	0xbe327324	-0.17426735
218	0xbe440038	-0.19140708
219	0xbe433f7a	-0.19067183
220	0xbe3b577a	-0.18295088
221	0xbe46e799	-0.19424285
222	0xbdfce7dc	-0.12348911
223	0xbd838aef	-0.06422984
224	0xbe6ac7d1	-0.22927786
225	0xbd923c7f	-0.07140445
226	0xbdd4ba83	-0.10387137
227	0xbcf15498	-0.029459283
228	0xbdf2f571	-0.118632205
229	0xbbb8eac8	-0.0056432225
230	0x3d1892c5	0.037249345
231	0x3d6c8c99	0.057751272
232	0x3cd9e34c	0.026597641
233	0x3cc21a72	0.02369425
234	0xbd601651	-0.054708783
235	0xbd44e284	-0.048067585
236	0x3dcbbc92	0.09948076
237	0x3db1393c	0.08653495
238	0x3c12c432	0.008957909
239	0x3d1a7a00	0.037714005
240	0x3d4a3b96	0.04937323
241	0x3e0bbeff	0.13647078
242	0x3cb46d21	0.022024693
243	0xbd26cfdf	-0.040725585
244	0x3c539fb2	0.012916492
245	0x3d991abc	0.07475802
246	0xbcc86832	-0.024463747
247	0x3db587b1	0.08863772
248	0x3e2fffa5	0.17187364
249	0x3e59c19e	0.21265265
250	0x3e811293	0.25209484
251	0xbe3e7bf6	-0.18601975
252	0x3d386e36	0.04502698
253	0xbd7a0892	-0.06104333
254	0x3d3b71c2	0.045762785
255	0x3b7bc576	0.0038417256

ConvBlock.0.conv_layer.bias f4 [9]
0	0xbd53c3e7	-0.0517005
1	0xbd9cc338	-0.076544225
2	0xbd68ccee	-0.05683606
3	0xbe76e260	-0.24109793
4	0x3e373080	0.17889595
5	0xbb93c757	-0.004509847
6	0x3de84e33	0.1134304
7	0x3d4e6031	0.050384704
8	0x3d0919b4	0.033471778

ConvBlock.0.norm_layer.weight f4 [9]
0	0x3f179cb8	0.5922351
1	0x3f26a43a	0.6509434
2	0x3f0b10c4	0.5432246
3	0x3ebc7209	0.36805752
4	0x3ed50329	0.41603974
5	0x3eb7f4ed	0.3592905
6	0x3ed8f92e	0.4237761
7	0x3ed842ae	0.42238373
8	0x3f0b7cbf	0.5448722

ConvBlock.0.norm_layer.bias f4 [9]
0	0x3d42cf2d	0.04756086
1	0x3e1225e2	0.14272264
2	0x3f0f03aa	0.55864966
3	0x3f0fc3e6	0.5615829
4	0x3e62d42d	0.22151251
5	0x3e87cbb3	0.26522598
6	0x3ee58d93	0.44834575
7	0xbc8ac1e5	-0.01693816
8	0x3f25f761	0.64830595

ConvBlock.2.conv_layer.weight f4 [9, 9, 3, 3]
0	0xbd10aa62	-0.03531874
1	0x3d8fb85f	0.07017588
2	0x3dfcc9d6	0.12343185
3	0xbdb0f2fa	-0.08640094
4	0x3d1e86cf	0.038702782
5	0x3d7a30cc	0.061081693
6	0xbe227bb1	-0.15867497
7	0xbd32a31f	-0.043612596
8	0xbdeeff10	-0.11669743
9	0xbde9ab20	-0.11409593
10	0xbc738f5d	-0.014865723
11	0xbc137a43	-0.009001317
12	0xbd84e844	-0.06489614
13	0x3d1fc48b	0.039005797
14	0xbd0e76fd	-0.034781445
15	0xbdd35fb1	-0.10320986
16	0xbdf28ec2	-0.11843635
17	0xbdd7095a	-0.104998305
18	0x3ebafa04	0.36518872
19	0x3e04ca2f	0.12967752
20	0xbdfa0109	-0.12207229
21	0x3db9aa79	0.09065718
22	0x3ce7c9ba	0.028294433
23	0xbe1e529d	-0.15461202
24	0x3dca7dac	0.09887251
25	0xbe0bfbcf	-0.13670276
26	0xbdb56151	-0.08856452
27	0x3eba4437	0.3638017
28	0xbde1a9c2	-0.11018707
29	0xbedd06ca	-0.43169242
30	0x3e2d1350	0.16901898
31	0xbe3f06f7	-0.18655
32	0xbe840688	-0.25786233
33	0x3f36546f	0.71222585
34	0x3da82926	0.082109734
35	0xbe88dfce	-0.2673325
36	0x3dd768e9	0.10518057
37	0xbdab41ac	-0.08362135
38	0x3d130bad	0.035899807
39	0xbe0748f9	-0.1321143
40	0xbcf84c11	-0.030309709
41	0xbd0806b0	-0.033209503
42	0xbe64fd47	-0.22362243
43	0xbdd71113	-0.105013035
44	0xbcb11dc1	-0.021620633
45	0xbe37ee5b	-0.17962019
46	0xbc279f9e	-0.010230927
47	0xbc7ee00f	-0.015556349
48	0xbda39e80	-0.07989216
49	0x3ce09cfe	0.02741861
50	0x3dcd23cb	0.100165926
51	0xbe729054	-0.2368787
52	0xbd17dedf	-0.03707778
53	0x3d164096	0.036682688
54	0xbd2b0c79	-0.04175994
55	0xbc0239ec	-0.00794838
56	0x3ddad5d5	0.106853165
57	0x3c6671ae	0.014065189
58	0xbd21f30c	-0.03953843
59	0xbcd1aa7d	-0.02559399
60	0x3e543204	0.20722204
61	0x3d66eca8	0.056378037
62	0x3bfc79a1	0.007704929
63	0x3d34fa96	0.04418429
64	0x3d856c4b	0.06514796
65	0x3dc1d970	0.09465301
66	0x3d9be6ba	0.07612367
67	0xbb8884fc	-0.0041662436
68	0x3d801680	0.062542915
69	0xbd7b0303	-0.06128217
70	0x3d1ddd6f	0.038541254
71	0x3def25f4	0.11677161
72	0xbe22e34d	-0.15907021
73	0xbb10ff70	-0.002212491
74	0x3d434f1c	0.047682866
75	0xbdd571a4	-0.10422066
76	0xbde6aeb6	-0.11263792
77	0x3e3ceee1	0.184505
78	0xbe90674c	-0.2820381
79	0xbdec2043	-0.11529591
80	0x3d9342c9	0.07190473
81	0xbe93fea0	-0.289052
82	0xbe5cc54c	-0.21559638
83	0x3c56b8ac	0.013105553
84	0xbe28bef5	-0.16479094
85	0xbd0f8a7f	-0.03504419
86	0x3e4a7f04	0.19775015
87	0x3e134173	0.14380436
88	0x3e1b3c30	0.15159678
89	0x3e859957	0.26093552
90	0xbdae2c3b	-0.0850453
91	0xbe2c2c23	-0.16813712
92	0xbe4cf585	-0.20015533
93	0x3ccd595e	0.025067028
94	0x3d95ada1	0.07308508
95	0x3d72c380	0.059268475
96	0x3e7d1483	0.24714856
97	0x3d172292	0.036898203
98	0x3d612a57	0.05497202
99	0x3d2daba6	0.042400025
100	0x3d82098f	0.063494794
101	0xbd5d39db	-0.054010253
102	0xbd1c386d	-0.03813975
103	0x3cb2e5e8	0.021838143
104	0xbcf53a8c	-0.029935144
105	0xbd90cf29	-0.07070763
106	0xbe33d6d8	-0.17562425
107	0xbe3e2d7b	-0.18572037
108	0xbea3c4a7	-0.3198597
109	0xbe14cc23	-0.14530997
110	0xbdaeba4a	-0.085316256
111	0xbe62d333	-0.22150879
112	0xbd408f2e	-0.047011547
113	0x3da76908	0.0817433
114	0xbc875565	-0.016520211
115	0x3e8f5309	0.27993038
116	0x3e854bdb	0.26034436
117	0x3e6c7fa7	0.2309557
118	0xbb09931f	-0.0020992232
119	0x3e1f4cbc	0.15556616
120	0xbbb6502b	-0.005563756
121	0xbcaf3dfe	-0.021391865
122	0xbe20a651	-0.15688445
123	0xbe018f41	-0.12652303
124	0xbe23bae8	-0.15989268
125	0xbe5b2b97	-0.21403347
126	0x3c7af611	0.015317456
127	0xbe157c32	-0.14598158
128	0xbc961088	-0.01831843
129	0x3ce1caed	0.027562583
130	0xbe06650c	-0.13124484
131	0x3d8e0cbb	0.06936022
132	0xbd79a50a	-0.06094841
133	0xbdbc80da	-0.09204264
134	0x3e1a2b5d	0.15055604
135	0xbe857849	-0.26068333
136	0xbcb2c3f7	-0.021821959
137	0xbe51d8f2	-0.20492914
138	0xbeafde8b	-0.34349474
139	0xbc1dbdc8	-0.009627767
140	0xbc80f876	-0.015743475
141	0x3d946f17	0.07247751
142	0x3e301db0	0.17198825
143	0x3e155c11	0.14585902
144	0xbe1b0ee5	-0.151424
145	0x3ccb946c	0.024851047
146	0xbb9e869e	-0.004837825
147	0x3cf22214	0.029557265
148	0x3d8ba3be	0.06818341
149	0xbd1b7378	-0.037951916
150	0x3dbf24db	0.093332015
151	0x3dad1557	0.08451336
152	0x3c916fa9	0.017753439
153	0x3e294816	0.16531405
154	0x3e3c4b62	0.18388131
155	0x3d5423c2	0.051791914
156	0x3dcc0f0a	0.09963806
157	0xbd01ec25	-0.031719346
158	0xbde79801	-0.11308289
159	0xbe99d417	-0.30044624
160	0xbe880147	-0.26563475
161	0xbe4c6bbd	-0.19962974
162	0x3e362a3b	0.17789547
163	0xba749689	-0.0009330293
164	0xbe445325	-0.19172342
165	0x3e25ad74	0.16179448
166	0xbe0ebf35	-0.13940127
167	0xbe578aad	-0.21048994
168	0x3df06f78	0.11740011
169	0x3da2fc00	0.079582214
170	0xbe70d361	-0.23518135
171	0xbdf3cd1c	-0.11904356
172	0x3dcfd39b	0.101477824
173	0x3c01113a	0.007877642
174	0xbd22bed9	-0.039732788
175	0x3d7bfd5f	0.06152093
176	0xbd78a36c	-0.060702726
177	0xbe445dc6	-0.19176397
178	0xbe348900	-0.17630386
179	0xbdc58c27	-0.096458726
180	0xbe8bd1ac	-0.27308404
181	0xbe3a6985	-0.18204315
182	0xbe1a706c	-0.15081948
183	0xbab91b1b	-0.0014122458
184	0xbc2c4bb9	-0.010516101
185	0x3c054501	0.008134128
186	0x3e0abd2f	0.1354873
187	0x3e19293d	0.14957137
188	0xbd59c8fe	-0.053170197
189	0x3e21b77d	0.15792651
190	0xbe2c15cb	-0.16805188
191	0xbe1f622c	-0.15564793
192	0x3e542c77	0.20720087
193	0x3b57b5da	0.0032914788
194	0x3c8f2454	0.017473377
195	0xbe2137a7	-0.15743886
196	0x3c2fe8b9	0.010736638
197	0x3e3bfe91	0.18358828
198	0xbe962a1d	-0.29329005
199	0xbda5df76	-0.080992624
200	0xbce77f40	-0.02825892
201	0xbdd62282	-0.104558006
202	0xbc5bf569	-0.01342521
203	0xbd85aaac	-0.06526694
204	0x3e8a5554	0.27018225
205	0xbd782aaf	-0.06058758
206	0xbeb232d4	-0.34804404
207	0xbe8d141b	-0.27554402
208	0x3d736b80	0.059428692
209	0x3d900afa	0.070333436
210	0xbdb9c050	-0.09069884
211	0x3cd45ab4	0.025922157
212	0xbe11a30e	-0.14222357
213	0xbc7e3d7f	-0.0155175915
214	0x3db77928	0.089586556
215	0xbe92fee2	-0.28710085
216	0x3e642781	0.22280695
217	0xbd8e2a7d	-0.06941698
218	0xbddf27b7	-0.10896247
219	0xbb1047ca	-0.0022015446
220	0xbd419465	-0.04726066
221	0xbd553c35	-0.05205937
222	0xbe120492	-0.14259556
223	0x3ba28968	0.0049602278
224	0x3e740b30	0.23832393
225	0xbdcb1775	-0.099165834
226	0xbc82d685	-0.015971432
227	0xbd1572e7	-0.036486533
228	0xbd6b1ef4	-0.057402566
229	0x3dd6fea1	0.10497785
230	0x3d6bb960	0.057549834
231	0xbeb0215a	-0.34400445
232	0xbe6b2b15	-0.22965653
233	0xbe314381	-0.17310907
234	0x3c5b670e	0.013391269
235	0x3e259187	0.16168796
236	0x3e9170dc	0.28406417
237	0xbe366769	-0.17812885
238	0xbd822695	-0.06355015
239	0x3e851339	0.25991228
240	0xbe68e6fb	-0.22744362
241	0xbe0f5a2e	-0.13999245
242	0xbdde9672	-0.10868539
243	0x3ccf372f	0.025294868
244	0xbd8cf9ef	-0.068836085
245	0xbe4eecf7	-0.20207582
246	0x3dff9de7	0.12481289
247	0x3e26982b	0.16268985
248	0x3da7a06d	0.08184896
249	0x3d1e3b49	0.038630757
250	0x3e171861	0.14755394
251	0x3e383eb8	0.17992675
252	0x3c865be9	0.016401248
253	0x3e1966d6	0.14980635
254	0x3e92c378	0.28664756
255	0xbce44cbe	-0.027868625

ConvBlock.2.conv_layer.bias f4 [9]
0	0x3ec0adcf	0.37632605
1	0xbc155b6c	-0.009116035
2	0xbc9e71c2	-0.019341353
3	0xbe9f2e9c	-0.31090248
4	0x3e37f857	0.17965828
5	0xbe372be7	-0.17887841
6	0xbe838968	-0.2569077
7	0xbe1cebe7	-0.15324365
8	0xbd044649	-0.03229359

ConvBlock.2.norm_layer.weight f4 [9]
0	0x3f2cc186	0.67482793
1	0x3f37dc5c	0.71820617
2	0x3f16fbcc	0.5897796
3	0x3e79bb66	0.24387893
4	0x3f466549	0.774983
5	0x3e850ddd	0.2598714
6	0x3ea387c8	0.3193953
7	0x3f28e658	0.65976477
8	0x3ea0f351	0.31435636

ConvBlock.2.norm_layer.bias f4 [9]
0	0xbe06a9c9	-0.13150705
1	0xbefa3722	-0.48870188
2	0xbd877fca	-0.06616171
3	0x3e19651c	0.14979976
4	0xbebb7470	-0.36612272
5	0x3f066935	0.52504283
6	0x3cb95284	0.022622354
7	0xbd4a3d91	-0.04937512
8	0xbb924d60	-0.00446479

ConvBlock.4.conv_layer.weight f4 [9, 9, 3, 3]
0	0x3ca4f350	0.020135552
1	0xbe066227	-0.1312338
2	0x3a9e57d7	0.0012080622
3	0x3ce2c04f	0.02767959
4	0xbe13de16	-0.14440188
5	0xbe095782	-0.13412288
6	0x3e22c3be	0.15894982
7	0x3dac6d53	0.084192894
8	0xbd2f773e	-0.042838328
9	0xbe9f787d	-0.31146613
10	0xbad87c73	-0.0016516581
11	0xbe61cc87	-0.22050677
12	0xbe5d8000	-0.2163086
13	0xbcc3dcd0	-0.023909003
14	0xbe929402	-0.28628546
15	0xbe86f970	-0.2636218
16	0xbd80455b	-0.062632285
17	0xbe9e53af	-0.3092322
18	0x3db9cd79	0.09072394
19	0xbc95fa94	-0.018307962
20	0x3d9f66a8	0.07783252
21	0x3d853855	0.06504885
22	0xbbe87199	-0.00709362
23	0x3d0e28ff	0.034707066
24	0x3e49099d	0.19632573
25	0x3dbcaac6	0.0921226
26	0x3ced60db	0.028976848
27	0x3dfa154b	0.122110926
28	0xbd98ad3b	-0.07454916
29	0x3c0aa489	0.00846208
30	0xbd36a405	-0.044590015
31	0xba5d7f57	-0.0008449456
32	0x3ce79684	0.028270014
33	0xbf080472	-0.53131783
34	0xbd8ef84b	-0.06980952
35	0xbe0cb008	-0.13739026
36	0xbe03cbc5	-0.128707
37	0xbdfbc5ff	-0.12293624
38	0xbe9338d0	-0.28754282
39	0xbc90b8eb	-0.0176663
40	0xbdfa59be	-0.12224148
41	0xbd09d38d	-0.033649016
42	0xbdf85ca6	-0.12127046
43	0xbdac7efe	-0.08422659
44	0xbe69f5e9	-0.22847714
45	0xbe423a14	-0.18967468
46	0xbda930aa	-0.08261235
47	0xbd9a0fcc	-0.07522544
48	0xbd9f448b	-0.077767454
49	0xbcb3b562	-0.021937076
50	0x3d194b88	0.037425548
51	0x3e8d08cb	0.2754577
52	0x3e0cde04	0.13756567
53	0x3eb7c3c0	0.35891533
54	0x3dbe5d47	0.09295135
55	0xbdf7f1d5	-0.12106673
56	0xbe52114d	-0.20514412
57	0x3e189e71	0.1490419
58	0xbe1f9006	-0.15582284
59	0xbe2fdd90	-0.17174363
60	0xbe20ae98	-0.15691602
61	0xbef315ee	-0.4747767
62	0xbdcf5505	-0.10123638
63	0x3de82ad8	0.11336297
64	0x3bdfc5aa	0.0068289833
65	0xbe2c9c7e	-0.16856572
66	0x3dbb1b50	0.09136069
67	0x3ddb4648	0.107067645
68	0xbd172534	-0.036900714
69	0x3e5d8677	0.21633326
70	0xbdd2f68d	-0.10300932
71	0x3e009e5e	0.12560412
72	0x3f0ac98a	0.54213774
73	0x3da96331	0.082708724
74	0x3e93567c	0.2877692
75	0xbd1f7531	-0.03893012
76	0xbd98d292	-0.07462038
77	0xbe2c25ec	-0.16811341
78	0xbe933631	-0.28752282
79	0xbe12c00d	-0.14331074
80	0xbc3c37d8	-0.011487924
81	0x3bb362cc	0.005474424
82	0xbc5003b1	-0.012696193
83	0xbd91bc20	-0.0711596
84	0xbd6cea5d	-0.057840694
85	0x3d6b2ede	0.057417743
86	0x3d6b1ad3	0.05739863
87	0xbe28c8d2	-0.16482857
88	0xbd5a3b29	-0.053279076
89	0xbce03ad4	-0.027371801
90	0xbcd2fac7	-0.025754346
91	0x3cc5a3f1	0.024126025
92	0xbdaaf01e	-0.0834658
93	0xbdac6bca	-0.08418997
94	0xbdac9d75	-0.0842847
95	0xbc665413	-0.014058131
96	0xbe15cafd	-0.14628215
97	0xbd8e7e48	-0.0695768
98	0xbe2ecc9e	-0.17070243
99	0x3d7285b5	0.059209544
100	0x3e552dc3	0.20818238
101	0x3e56b028	0.20965636
102	0xbea6e7bc	-0.32598674
103	0x3e0e81bb	0.13916676
104	0x3e0033ee	0.1251981
105	0xbf0300e9	-0.51173264
106	0xbde0cf41	-0.109770305
107	0x3ed03282	0.40663534
108	0xbcdb6304	-0.026780613
109	0xbc9ca7ea	-0.019123036
110	0xbe792914	-0.24332076
111	0x3d11f17a	0.03563068
112	0x3c2f20e8	0.010688998
113	0xbdcc9e03	-0.09991076
114	0x3e028249	0.12745012
115	0x3d421760	0.047385573
116	0xbe910b97	-0.28329155
117	0x3d980e8e	0.07424651
118	0xbda0f4b2	-0.07859172
119	0xbe10dae2	-0.14145997
120	0x3ce2b73f	0.02767527
121	0xbb7e8268	-0.0038835052
122	0xbce122ff	-0.027482508
123	0xbd6458ad	-0.05574863
124	0xbc730e06	-0.014834886
125	0xbda93c73	-0.08263483
126	0xbd3706a1	-0.044684056
127	0xbe0b8479	-0.13624753
128	0xbd4c6dfe	-0.049909584
129	0xbd86a412	-0.06574263
130	0xbda3e603	-0.08002856
131	0xbc1ad214	-0.009449501
132	0x3e37013d	0.17871566
133	0x3da7a2ca	0.081853464
134	0x3d9c9c62	0.07647015
135	0xbecaa01b	-0.39575276
136	0x3de9a809	0.11409003
137	0x3d127126	0.035752438
138	0xbe800db2	-0.2501045
139	0x3c2f1817	0.010686896
140	0xbdecc856	-0.115616485
141	0xbd7de95f	-0.06199014
142	0x3e3fc5ee	0.18727848
143	0xbdb1224b	-0.08649119
144	0x3e2a038b	0.16602914
145	0x3d20db84	0.039271846
146	0xbec7257b	-0.38895783
147	0x3d991bea	0.07476027
148	0x3c190d76	0.009341588
149	0xbd2954a0	-0.04134047
150	0x3cc54556	0.024080914
151	0x3db2c651	0.08729232
152	0x3da35065	0.079743184
153	0xbd1cd4c0	-0.03828883
154	0x3c474e49	0.012164661
155	0xbdf85f9b	-0.1212761
156	0x3d2b7fcc	0.041869923
157	0x3d81ed74	0.06344119
158	0xbd5603f2	-0.052249856
159	0x3dd28d3e	0.10280846
160	0xbd352f86	-0.044234775
161	0xbdb0f14f	-0.08639776
162	0xbe4d9374	-0.2007578
163	0xbe0a5669	-0.13509525
164	0xbeb27e9c	-0.3486222
165	0xbe1120fb	-0.14172737
166	0xbe08cdbb	-0.1335973
167	0xbe480587	-0.19533359
168	0xbd935973	-0.071947955
169	0xbd3a9b21	-0.0455581
170	0xbd856960	-0.06514239
171	0x3d92679f	0.071486704
172	0x3dbdc58e	0.09266196
173	0xbcc20839	-0.023685561
174	0xbe86be4d	-0.26317063
175	0xbdd82856	-0.105545685
176	0xbe9f09ae	-0.31062073
177	0xbe9b01c5	-0.30274788
178	0xbd0e07a6	-0.034675263
179	0xbe7ccb6a	-0.24686971
180	0x3d5002dc	0.050783977
181	0xbd2bb98c	-0.041925
182	0xbd9be0f2	-0.07611264
183	0x3e230345	0.15919216
184	0x3d76f510	0.060292304
185	0x3d4ed2ac	0.05049388
186	0x3deba846	0.11506705
187	0x3d48c300	0.04901409
188	0xbe5ef869	-0.21774448
189	0xbd97658e	-0.07392417
190	0x3ca5276d	0.020160401
191	0xbdb05f41	-0.08611918
192	0xbd9f8be0	-0.07790351
193	0xbc8e6ae5	-0.017384956
194	0xbd9feb82	-0.078085914
195	0xbe5abc59	-0.21360911
196	0xbe2804dd	-0.16408105
197	0xbd8aeb11	-0.067831166
198	0xbe22f619	-0.15914191
199	0xbdfd044d	-0.12354336
200	0xbe294515	-0.16530259
201	0xbd016437	-0.031589713
202	0xbdd13c17	-0.10216539
203	0x3c18d5d4	0.009328324
204	0xbc30eeb4	-0.010799099
205	0xbd3866f4	-0.04502006
206	0xbd804df2	-0.06264867
207	0xbdfcb6e8	-0.12339574
208	0x3d96c024	0.07360867
209	0xbd82dc8b	-0.063897215
210	0x3c0dcb1e	0.008654384
211	0xbd2e03a5	-0.042483944
212	0xbe5cfe45	-0.21581371
213	0xbbf9d562	-0.007624314
214	0xbdad9fa8	-0.08477718
215	0xbe94a3f4	-0.29031336
216	0x3dba9868	0.091111004
217	0xbe031717	-0.12801777
218	0xbbeca2e1	-0.007221565
219	0xbe4145d5	-0.18874295
220	0xbdae6ca7	-0.085168175
221	0xbe0baafb	-0.13639443
222	0xbea190dd	-0.31555834
223	0xbe9ef202	-0.31044012
224	0xbe8446e4	-0.25835335
225	0x3d0e6a1f	0.034769174
226	0xbb3adc17	-0.0028512531
227	0xbdbab7e5	-0.09117106
228	0xbd097c68	-0.03356591
229	0xbd1445e1	-0.036199454
230	0xbd2aba28	-0.04168144
231	0x3c9ca5fc	0.019122116
232	0xbe235e3d	-0.15953918
233	0xbe3ab817	-0.18234287
234	0xbee1adbd	-0.44077864
235	0xbe2add7d	-0.16686054
236	0xbf202f30	-0.62572
237	0xbe96a22b	-0.294206
238	0xbb5f1cf5	-0.003404436
239	0xbea43e05	-0.32078567
240	0xbe9e78b6	-0.3095147
241	0xbd826dcc	-0.06368598
242	0xbe735cd2	-0.23765877
243	0xbdd650b4	-0.10464612
244	0xbd9e25a4	-0.07722023
245	0x3e1c3ca6	0.1525751
246	0xbdaf8ca2	-0.085717455
247	0xbbd4daa2	-0.0064957896
248	0x3b82f467	0.00399642
249	0xbd372e48	-0.04472187
250	0xbd695a11	-0.05697066
251	0xbb961ec2	-0.0045813033
252	0x3e607384	0.21919066
253	0xba5e6adf	-0.0008484553
254	0xbd7d316d	-0.061814714
255	0xbdd69ef5	-0.104795374

ConvBlock.4.conv_layer.bias f4 [9]
0	0x3ce24651	0.02762142
1	0x3d1d3f17	0.038390245
2	0x3d7db455	0.061939556
3	0xbdfccb05	-0.123434104
4	0xbe7d794e	-0.24753305
5	0x3d60aaad	0.05485027
6	0x3e9a9433	0.30191192
7	0x3e0c54ed	0.13704272
8	0x3e822350	0.25417566

ConvBlock.4.norm_layer.weight f4 [9]
0	0x3d3dd1b7	0.046342578
1	0x3e816adc	0.2527684
2	0x3e27edc7	0.16399299
3	0x3d599e7f	0.05312967
4	0x3d86ebec	0.06587967
5	0x3d863e24	0.06554821
6	0x3e05aa71	0.130533
7	0x3e1a1ebb	0.15050785
8	0x3d9be28e	0.07611571

ConvBlock.4.norm_layer.bias f4 [9]
0	0x3dc5c089	0.09655864
1	0xbd8e892d	-0.06959758
2	0xbc48617a	-0.0122302715
3	0x3d96b035	0.073578276
4	0x3e385814	0.18002349
5	0x3d42d689	0.047567878
6	0xbe49c9b2	-0.19705847
7	0xbcb927dc	-0.022602014
8	0xbd2b9809	-0.04189304

ResidualBlock.0.conv1.conv_layer.weight f4 [4, 9, 1, 1]
0	0xbe460390	-0.19337296
1	0xbdcf9a1a	-0.101368144
2	0x3cda78c1	0.026668908
3	0x3e80404a	0.2504905
4	0xbe1b8921	-0.1518903
5	0xbea9839a	-0.33108217
6	0x3e40b889	0.18820395
7	0xbe88a330	-0.26687002
8	0xbddbecf8	-0.107385576
9	0xbd99979a	-0.07499619
10	0xbc76b357	-0.015057406
11	0x3c8e6008	0.017379776
12	0xbd7c74c7	-0.061634805
13	0x3d8cdda3	0.06878211
14	0xbd8da2b3	-0.06915798
15	0x3e8a2ed7	0.2698886
16	0x3eb15d7d	0.34641638
17	0xbea3a64a	-0.31962806
18	0xbe942fd6	-0.28942746
19	0xbd20b567	-0.0392355
20	0xbe6f664f	-0.23378871
21	0xbe8e3207	-0.27772543
22	0xbecc0acb	-0.39851984
23	0xbe33f2a8	-0.17573035
24	0x3e30732e	0.17231438
25	0xbd76507d	-0.060135353
26	0x3ea49c8e	0.32150692
27	0x3ee28c97	0.44247887
28	0xbf0bb4b6	-0.5457262
29	0x3e953eb4	0.291494
30	0xbe7f13e5	-0.24909933
31	0xbdb231a3	-0.08700874
32	0xbef021ac	-0.4690069
33	0xbde8ba96	-0.113637134
34	0xbe8165b8	-0.25272918
35	0x3eb3a475	0.35086408

ResidualBlock.0.conv1.conv_layer.bias f4 [4]
0	0x3c676825	0.014123951
1	0xbe0b2d0e	-0.13591406
2	0xbd63456b	-0.055486124
3	0xbdd99d66	-0.106257245

ResidualBlock.0.conv1.norm_layer.weight f4 [4]
0	0x3da99839	0.08280987
1	0x3dc0f7d3	0.09422269
2	0x3eaf62f2	0.34255177
3	0x3ebbc7c2	0.3667584

ResidualBlock.0.conv1.norm_layer.bias f4 [4]
0	0x3eb59668	0.35466313
1	0x3ea1742f	0.31533954
2	0xbeecdeb0	-0.46263647
3	0x3b0f4763	0.0021862618

ResidualBlock.0.conv2.conv_layer.weight f4 [4, 4, 3, 3]
0	0xbe3ce717	-0.18447529
1	0xbdf3e127	-0.11908179
2	0x3e2f536b	0.17121665
3	0x3e6f821e	0.2338948
4	0xbbe06bf5	-0.006848807
5	0x3e4b592f	0.1985824
6	0x3dbe3fb0	0.09289491
7	0xbe9c3afb	-0.3051375
8	0xbea0bd61	-0.31394485
9	0xbd84366c	-0.06455693
10	0x3e32f66a	0.17476812
11	0xbcc9c6f5	-0.024631003
12	0xbd101352	-0.035174675
13	0xbe1bdd35	-0.15221103
14	0x3c527f66	0.012847757
15	0x3d9c854e	0.07642613
16	0x3d9d8677	0.07691663
17	0xbef96198	-0.4870727
18	0xbd8a7b4a	-0.06761797
19	0xbe3f3f7a	-0.18676558
20	0xbe1168b9	-0.14200105
21	0xbe8b1f13	-0.27172145
22	0xbdfc3506	-0.12314801
23	0xbd221ef5	-0.039580304
24	0xbe457b87	-0.19285403
25	0xbe6352fd	-0.22199626
26	0xbe304b73	-0.17216282
27	0xbe52063d	-0.20510192
28	0xbb099d90	-0.0020998456
29	0x3e0664f6	0.13124451
30	0xbe00f58e	-0.12593672
31	0xbe67c7f0	-0.22634864
32	0x3d6d73ae	0.05797165
33	0x3d191de1	0.03738201
34	0xbe787719	-0.24264182
35	0xbe7955ac	-0.24349087
36	0x3d5b84df	0.053593513
37	0x3db5adaf	0.08871018
38	0xbe65d29f	-0.22443627
39	0x3d038baf	0.032115635
40	0x3def717a	0.11691566
41	0x3d05e342	0.032687433
42	0x3e27a587	0.16371737
43	0xbd549421	-0.05189908
44	0xbda289ef	-0.07936465
45	0x39c00575	0.0003662516
46	0x3aa7c22b	0.0012798955
47	0xbe8c8f00	-0.2745285
48	0x3b4d5cf9	0.0031335934
49	0xbd6adba6	-0.05733838
50	0x3e321241	0.17389776
51	0x3d8f3f98	0.069945514
52	0xbe3adef4	-0.18249112
53	0xbde8b2c1	-0.113622196
54	0xbe0a720b	-0.13520066
55	0xbe733184	-0.23749357
56	0x3e7d16e6	0.24715766
57	0xbe82ef92	-0.25573403
58	0x3dd1076f	0.10206496
59	0x3e3a6450	0.18202329
60	0x3e54fffc	0.20800775
61	0x3e7ef745	0.24899013
62	0xbe8f65c4	-0.2800733
63	0xbbc28ed1	-0.005937435
64	0xbb6c000b	-0.0036010768
65	0x3c45ace0	0.012065142
66	0x3bb9f68e	0.0056751436
67	0xbc398364	-0.01132283
68	0x3c203c62	0.009780021
69	0xba9fb820	-0.0012185611
70	0x3d50cea8	0.050978333
71	0x3a95fdb1	0.0011443404
72	0xbd181b20	-0.037135243
73	0xbe06c2eb	-0.13160293
74	0xbdca6a61	-0.098835714
75	0xbc2b9a54	-0.010473806
76	0xbd9b5f1f	-0.07586502
77	0xbd5d2b42	-0.053996332
78	0x3a610894	0.0008584347
79	0xbe13bfbc	-0.1442861
80	0xbeb63734	-0.35588992
81	0x3cd102e7	0.02551408
82	0x3ec0d152	0.376597
83	0x3e08269e	0.13295981
84	0xbe10595f	-0.14096592
85	0x3d99be18	0.07506961
86	0xbe42870c	-0.18996829
87	0xbe320e38	-0.17388237
88	0x3e04c6d1	0.12966467
89	0xbd14da44	-0.036340967
90	0xbdc7c255	-0.09753863
91	0xbe5c7feb	-0.21533172
92	0x3e1c5b1e	0.15269133
93	0xbccb5aca	-0.024823565
94	0xbdd2b222	-0.102878824
95	0xbe5d4bd8	-0.21610963
96	0x3d2bf2e4	0.041979685
97	0xbea7f0cc	-0.328009
98	0xbe86dbfb	-0.26339707
99	0xbdc3df89	-0.0956412
100	0xbe14f57b	-0.14546768
101	0xbe2faaf4	-0.17155057
102	0xbd63fa5d	-0.055658687
103	0xbe1bf694	-0.15230781
104	0xbdfc483b	-0.12318464
105	0xbda799e0	-0.08183646
106	0xbe371200	-0.1787796
107	0xbe20e6af	-0.15712999
108	0x3e27324c	0.1632778
109	0xbda6c5b1	-0.081431754
110	0x3d924253	0.071415566
111	0x3eeae929	0.45881012
112	0xbe35b96b	-0.17746513
113	0x3e3848ba	0.17996493
114	0xbd1817d3	-0.037132096
115	0xbe1b3af1	-0.15159203
116	0xbdae953a	-0.085245565
117	0xbe0f03b1	-0.13966252
118	0x3d622392	0.055209704
119	0x3dfe3b18	0.12413615
120	0x3e453ee1	0.19262268
121	0x3d59f0e9	0.053208265
122	0x3e1ffd0e	0.15623876
123	0xbd1a522f	-0.037676033
124	0xbdfca44e	-0.12336026
125	0xbe3503d1	-0.17677237
126	0xbd6b9b4e	-0.057521157
127	0xbde08bf8	-0.10964197
128	0x3e22452a	0.15846696
129	0x3e458036	0.1928719
130	0x3ea6e1ec	0.3259424
131	0x3a6fc0b6	0.00091458426
132	0x3e8b9c05	0.2726747
133	0xbdaf45b5	-0.085582174
134	0x3d166864	0.03672065
135	0x3e566743	0.20937829
136	0x3d8457b7	0.06462043
137	0x3cd8c362	0.026460353
138	0xbd832003	-0.0640259
139	0xbdc7e25c	-0.097599715
140	0xbdd977d2	-0.10618557
141	0xbdfe5292	-0.12418093
142	0xbe8da134	-0.2766205
143	0xbe963d2b	-0.29343542

ResidualBlock.0.conv2.conv_layer.bias f4 [4]
0	0x3e080739	0.13284005
1	0xbc40d300	-0.011769056
2	0x3e61261f	0.21987198
3	0xbd9cdccd	-0.07659302

ResidualBlock.0.conv2.norm_layer.weight f4 [4]
0	0x3eb59747	0.35466978
1	0x3eed33b4	0.4632851
2	0x3e564586	0.20924959
3	0x3da8239e	0.082099184

ResidualBlock.0.conv2.norm_layer.bias f4 [4]
0	0x3bc225c8	0.005924914
1	0xbe1ba05e	-0.15197894
2	0x3f19adea	0.60030997
3	0x3d3b8207	0.0457783

ResidualBlock.0.conv3.conv_layer.weight f4 [9, 4, 1, 1]
0	0xbf298759	-0.6622215
1	0xbd967311	-0.07346166
2	0x3e2815f9	0.16414632
3	0xbe849d5d	-0.2590131
4	0xbd822d44	-0.0635629
5	0x3ef457fe	0.47723383
6	0xbe94e396	-0.29079884
7	0x3e9d9a1c	0.3078164
8	0xbe5ee6a2	-0.21767667
9	0xbeaecd70	-0.3414111
10	0x3ea5f654	0.32414496
11	0x3edb4ee1	0.42833617
12	0xbf0ba14d	-0.54543
13	0x3d584f8f	0.052810248
14	0x3ec6d2c2	0.3883267
15	0x3e8e26c7	0.2776396
16	0xbee6deaa	-0.45091754
17	0x3cdaccd1	0.026708992
18	0x3e90baaa	0.28267413
19	0xbcf6d960	-0.03013295
20	0x3db2947b	0.08719727
21	0xbeb0107b	-0.34387574
22	0x3e474353	0.19459276
23	0xbe80e696	-0.25175923
24	0xbe30f530	-0.17281032
25	0x3e9b4774	0.30327952
26	0xbf22bc9f	-0.6356906
27	0x3ec937dd	0.39300433
28	0xbda09840	-0.078415394
29	0xbd434fa2	-0.047683366
30	0x3df1f37a	0.118140176
31	0xbf46662e	-0.77499664
32	0xbe405988	-0.18784153
33	0x3e68fda5	0.22753008
34	0x3e3e9906	0.18613061
35	0x3f1984fe	0.59968555

ResidualBlock.0.conv3.conv_layer.bias f4 [9]
0	0x3e9fb7b0	0.3119483
1	0x3d9ca3c5	0.07648424
2	0x3e985eb6	0.2975976
3	0xbce180c1	-0.027527215
4	0xbe8dbb45	-0.27681938
5	0xbef86c11	-0.48519948
6	0xbee8a327	-0.45436975
7	0x3e293058	0.16522348
8	0xbf16c4dc	-0.58894134

ResidualBlock.0.conv3.norm_layer.weight f4 [9]
0	0x3e7aa67f	0.24477576
1	0x3eda6d8f	0.42661712
2	0x3ed04e88	0.40684915
3	0x3df9a566	0.121897504
4	0x3dfb4958	0.122698486
5	0x3f27918d	0.6545647
6	0x3e77bb7e	0.24192616
7	0x3e1bc36d	0.15211268
8	0xbe0bfc9e	-0.13670585

ResidualBlock.0.conv3.norm_layer.bias f4 [9]
0	0xbd21c1ed	-0.039491583
1	0x3e64e600	0.22353363
2	0xbbea1aaa	-0.007144292
3	0x3e578ac4	0.21049029
4	0xbe033c2f	-0.12815927
5	0x3dcbd8d4	0.09953466
6	0xbc2e6a94	-0.010645527
7	0xbe2992b7	-0.16559874
8	0xbeaa4a76	-0.33259934

ResidualBlock.1.conv1.conv_layer.weight f4 [4, 9, 1, 1]
0	0x3efc19f3	0.49238548
1	0xbcb743f6	-0.022371273
2	0x3e455789	0.19271673
3	0xbd79af1a	-0.060958005
4	0xbd67a9ab	-0.056558292
5	0x3e0396d9	0.12850513
6	0x3e008893	0.12552099
7	0xbe84a88e	-0.25909847
8	0xbe88085d	-0.2656888
9	0x3d4038e5	0.04692926
10	0x3e3a584e	0.18197748
11	0xbcfaf527	-0.030634476
12	0xbe56209d	-0.20910878
13	0xbf25740b	-0.6463019
14	0xbe1dd0bd	-0.15411659
15	0xbd093f94	-0.0335079
16	0x3e64708c	0.22308558
17	0xbe9000e6	-0.28125685
18	0x3f09dc84	0.53852105
19	0x3d563f8a	0.05230669
20	0xbea2c12b	-0.31788
21	0xbd640653	-0.055670094
22	0x3d6d0bcf	0.05787259
23	0x3dfab721	0.1224196
24	0x3d28edd3	0.04124243
25	0xbbf65469	-0.0075173867
26	0x3ebf6db0	0.37388372
27	0x3e0f11f2	0.1397169
28	0x3d8c1a7f	0.06840991
29	0xbc05bac5	-0.008162205
30	0xbee83974	-0.45356333
31	0xbcba6c09	-0.022756593
32	0x3e928fb6	0.28625268
33	0xbc6c1639	-0.014409595
34	0x3dc6c2a4	0.097050935
35	0x3d21d263	0.03950728

ResidualBlock.1.conv1.conv_layer.bias f4 [4]
0	0xbea68769	-0.32525185
1	0xbeaaaadc	-0.3333348
2	0xbe04ef67	-0.1298195
3	0x3e9053a0	0.281888

ResidualBlock.1.conv1.norm_layer.weight f4 [4]
0	0x3e8bd512	0.27310997
1	0x3e7bac64	0.2457748
2	0x3e92d4e0	0.28678036
3	0x3e9e37d7	0.30901977

ResidualBlock.1.conv1.norm_layer.bias f4 [4]
0	0x3d047414	0.032337263
1	0x3e48d2e7	0.19611703
2	0x3e54d4e1	0.20784332
3	0x3f0e27cc	0.55529475

ResidualBlock.1.conv2.conv_layer.weight f4 [4, 4, 3, 3]
0	0xbd5b6d88	-0.053571254
1	0xbc40bb0a	-0.011763344
2	0x3d3a6277	0.04550406
3	0xbec787cd	-0.38970795
4	0xbebe7e48	-0.3720572
5	0x3e32c3d6	0.17457518
6	0xbd3ba11c	-0.045807943
7	0xbe1483ff	-0.14503478
8	0xbddfeece	-0.1093422
9	0xbd96afe7	-0.073577695
10	0x3e151091	0.14557101
11	0xbe02b242	-0.12763312
12	0x3cb71f9b	0.022353938
13	0xbd5dca17	-0.054147806
14	0xbdfd6d07	-0.12374311
15	0x3db87021	0.09005762
16	0xbe1d514a	-0.1536304
17	0xbbf2c32f	-0.0074085216
18	0xbe0c253a	-0.13686076
19	0x3e0bc72e	0.136502
20	0x3e149e2b	0.14513461
21	0xbc285f67	-0.010276652
22	0xbadaf2bf	-0.0016704424
23	0x3e1f3913	0.15549116
24	0x3e55796c	0.208471
25	0xbe0a44d7	-0.13502823
26	0xbe39322d	-0.18085547
27	0x3eda149a	0.42593843
28	0xbf147486	-0.579903
29	0x3e422f6d	0.18963404
30	0x3b7bb04f	0.0038404649
31	0x3d8a390f	0.06749164
32	0xbd02b590	-0.031911433
33	0xbdde6677	-0.10859387
34	0x3e1e1ba9	0.15440239
35	0x3e412661	0.18862297
36	0x3bb39b61	0.005481169
37	0x3c94e8f7	0.018177493
38	0x3da9416c	0.08264431
39	0xbe81ba1e	-0.2533731
40	0xbe95c1b7	-0.29249355
41	0xbe04f33d	-0.12983413
42	0xbed30b6f	-0.4121966
43	0xbe1f6de0	-0.15569258
44	0x3dd29fce	0.102843866
45	0xbe1c67e0	-0.15274
46	0xbd882882	-0.06648351
47	0x39e41451	0.00043502686
48	0xbda66e7c	-0.08126542
49	0x3cc89e6f	0.02448961
50	0xbcb50d20	-0.022100985
51	0xbdd4d441	-0.10392047
52	0xbeb1ab20	-0.3470087
53	0xbebde40f	-0.37088057
54	0x3cc284e3	0.023745006
55	0x3dcb3d58	0.0992381
56	0xbc62fbfd	-0.013854024
57	0xbed7e4f3	-0.42166862
58	0xbf1c010b	-0.6093909
59	0xbec25499	-0.37955168
60	0x3e2b8a7d	0.16752048
61	0x3e447e9e	0.19188926
62	0xbd56238d	-0.052279998
63	0x3c268024	0.010162387
64	0xbdeeaec0	-0.11654425
65	0xbd9faefd	-0.07797048
66	0x3da4d9bc	0.08049342
67	0xbde16dfc	-0.11007306
68	0xbd007372	-0.031360097
69	0x3d816a19	0.06319065
70	0xbc083c0b	-0.008315097
71	0x3e0d9e60	0.13829947
72	0x3c6bbe45	0.0143886255
73	0xbe6e2265	-0.23255308
74	0xbe04832b	-0.12940662
75	0xbe846369	-0.25857094
76	0x3d6ee36f	0.058322366
77	0x3ebae3b7	0.36501858
78	0x3dab6923	0.083696626
79	0x3dce0b85	0.10060791
80	0xbd9d9dc0	-0.07696104
81	0xbe5a68b1	-0.21328999
82	0x3d99b473	0.07505121
83	0x3da80492	0.08203997
84	0x3dec9f2b	0.115537964
85	0xbd89709c	-0.06710932
86	0xbdc7e851	-0.09761108
87	0x3d62bf54	0.055358246
88	0xbe22e71d	-0.15908475
89	0xbddbe307	-0.107366614
90	0xbd3efcb2	-0.046627708
91	0xbd85fab5	-0.06541959
92	0x3e42d793	0.19027548
93	0xbd86813d	-0.06567619
94	0x3e32bda8	0.1745516
95	0x3cac2f6d	0.021018708
96	0x3da19f23	0.07891681
97	0xbdc403fc	-0.095710725
98	0x3d5a5f24	0.05331339
99	0x3ebb9ebd	0.36644545
100	0xbefe2bab	-0.4964269
101	0xbd98d262	-0.07462002
102	0xbea348a6	-0.31891364
103	0xbd324628	-0.043523937
104	0x3dc0b148	0.09408814
105	0xbe382a4d	-0.17984886
106	0x3dbc7ece	0.092038736
107	0x3d9412b9	0.072301336
108	0xbe8f8c2f	-0.2803664
109	0xbebc4e5d	-0.36778536
110	0x3d39a46c	0.04532282
111	0xbe2fef5a	-0.17181149
112	0xbe37684f	-0.17910884
113	0xbd7cc6ba	-0.061712958
114	0xbd80fdff	-0.06298446
115	0xbdfaf07e	-0.122529015
116	0xbe0519ed	-0.12998171
117	0xbe30d8c0	-0.17270184
118	0xbdf37a17	-0.11888521
119	0xbdd4dcbe	-0.10393666
120	0xbe05da0b	-0.13071458
121	0xbdfe0b90	-0.12404549
122	0xbc6a55bb	-0.014302666
123	0xbdbe3914	-0.092882305
124	0xbc05028f	-0.008118286
125	0xbdabcdba	-0.083888486
126	0xbe69952e	-0.22810814
127	0x3ecc9774	0.399593
128	0xbda1f04f	-0.07907163
129	0xbe8af6e5	-0.2714149
130	0x3ea41c3d	0.32052794
131	0xbd867a94	-0.06566349
132	0xbea450c5	-0.32092872
133	0x3e0fbd71	0.1403711
134	0x3e138b58	0.14408624
135	0x3ea42c72	0.3206516
136	0x3d876d63	0.06612661
137	0x3cfeee28	0.031119421
138	0x3d4e51f8	0.05037114
139	0xbd71a875	-0.058998544
140	0x3c209017	0.009799979
141	0x3e2cf92e	0.1689193
142	0x3c117a2c	0.008879226
143	0xbe477120	-0.19476748

ResidualBlock.1.conv2.conv_layer.bias f4 [4]
0	0x3e2f19c6	0.17099676
1	0x3e7850c5	0.24249561
2	0xbe11a065	-0.14221342
3	0x3cb92014	0.022598304

ResidualBlock.1.conv2.norm_layer.weight f4 [4]
0	0x3edeac44	0.43490803
1	0x3f2ecec8	0.68284273
2	0x3eab39e3	0.33442602
3	0x3ec58fde	0.38586324

ResidualBlock.1.conv2.norm_layer.bias f4 [4]
0	0xbec759c6	-0.3893568
1	0xbf47d8a6	-0.78064954
2	0xbe4337e2	-0.19064286
3	0xbe8553b0	-0.2604041

ResidualBlock.1.conv3.conv_layer.weight f4 [9, 4, 1, 1]
0	0x3e4c3bc0	0.19944668
1	0x3ba88710	0.005143054
2	0x3e924abe	0.2857265
3	0xbdfcc720	-0.123426676
4	0xbe1af8fe	-0.15134045
5	0x3e7df921	0.24802066
6	0x3d35fb9f	0.044429418
7	0xbee4fe69	-0.4472535
8	0xbed61814	-0.41815245
9	0xbd4b44a7	-0.04962602
10	0x3edf2b72	0.43587834
11	0x3b056649	0.0020355156
12	0xbd2484d5	-0.04016574
13	0x3f1410b7	0.57838005
14	0x3d7a0a93	0.06104524
15	0xbd87ec1b	-0.066368304
16	0xbdbead9b	-0.09310456
17	0x3ca71f02	0.020400528
18	0x3d40efbc	0.04710363
19	0xbf2c7bac	-0.6737621
20	0x3f1d0a32	0.6134368
21	0x3c49bd6f	0.012313231
22	0x3da3d8fb	0.0800037
23	0xbe1f2dbe	-0.15544793
24	0xbf041e3b	-0.5160863
25	0x3e21477c	0.15749925
26	0x3e7ea00b	0.24865739
27	0xbe0b2708	-0.13589108
28	0xbf09d5ed	-0.5384205
29	0xbe2bc05b	-0.16772597
30	0xbdf67e84	-0.1203585
31	0x3e024591	0.1272185
32	0x3e8007c7	0.25005934
33	0x3ea7017e	0.32618326
34	0xbdb0f086	-0.08639626
35	0xbdf4983e	-0.119431004

ResidualBlock.1.conv3.conv_layer.bias f4 [9]
0	0xbeb8f840	-0.361269
1	0xbec47b9f	-0.38375565
2	0xbc5c87dc	-0.013460126
3	0xbdcd5591	-0.10026086
4	0x3d9ca83b	0.07649275
5	0xbe0d7394	-0.13813621
6	0xbebc5b0c	-0.36788213
7	0xbe862e65	-0.2620727
8	0x3da35ed8	0.079770744

ResidualBlock.1.conv3.norm_layer.weight f4 [9]
0	0x3f01a26e	0.50638473
1	0x3e6c196f	0.23056577
2	0x3f9b3b8e	1.212755
3	0x3f7f8f7a	0.998283
4	0x3f41d1df	0.7571086
5	0xbee12220	-0.43971348
6	0x3f14903b	0.5803258
7	0x3f12421f	0.5713214
8	0x3f558ee0	0.83421135

ResidualBlock.1.conv3.norm_layer.bias f4 [9]
0	0xbd21c175	-0.039491136
1	0x3e64e61c	0.22353405
2	0xbbea19cd	-0.007144189
3	0x3e578ad9	0.2104906
4	0xbe033c33	-0.12815933
5	0x3dcbd898	0.09953421
6	0xbc2e6a67	-0.0106454855
7	0xbe2992d2	-0.16559914
8	0xbeaa4a64	-0.3325988

ResidualBlock.2.conv1.conv_layer.weight f4 [4, 9, 1, 1]
0	0xbe24ee62	-0.16106561
1	0x3dc1490f	0.09437763
2	0xbe8f60d6	-0.28003567
3	0x3dbb59f4	0.091480166
4	0x3ea64d22	0.32480723
5	0x3db92cb8	0.090417325
6	0x3e581ac2	0.21103957
7	0x3ef3ca3c	0.4761523
8	0xbe34513b	-0.17609112
9	0x3ed18c00	0.40927124
10	0x3dad5eaa	0.08465321
11	0x3ee2996e	0.44257683
12	0xbe2d0cbd	-0.1689939
13	0x3ce7b226	0.02828319
14	0xbe1b5c31	-0.15171887
15	0xbe438481	-0.19093515
16	0xbeb5c49a	-0.35501558
17	0x3e6fbd93	0.2341216
18	0xbe130d9d	-0.14360662
19	0x3dd96c5a	0.106163695
20	0xbe2bcd3d	-0.16777511
21	0xbdebec99	-0.11519737
22	0x3ebf9736	0.37420052
23	0x3dda6646	0.10664038
24	0xbe3cb748	-0.18429291
25	0x3da74ac2	0.08168556
26	0x3d78a034	0.060699657
27	0xbe06db7c	-0.13169664
28	0x3d4c4f89	0.049880538
29	0x3e02641f	0.12733506
30	0xbc9d1a95	-0.019177714
31	0x3f0a726b	0.5408084
32	0x3de02c6f	0.10945975
33	0xbe283b41	-0.16428854
34	0xbdd69d56	-0.10479228
35	0xbe3879ce	-0.18015215

ResidualBlock.2.conv1.conv_layer.bias f4 [4]
0	0xbecc10e7	-0.39856645
1	0xbe1535c3	-0.1457129
2	0x3e287904	0.16452414
3	0xbdb1244d	-0.08649502

ResidualBlock.2.conv1.norm_layer.weight f4 [4]
0	0x3ed406e2	0.414115
1	0x3ecd6ac4	0.40120518
2	0x3f4acc8b	0.7921836
3	0x3ed888f2	0.4229198

ResidualBlock.2.conv1.norm_layer.bias f4 [4]
0	0x3e7b99d8	0.24570405
1	0x3d5c331e	0.053759687
2	0x39e12c5d	0.00042948397
3	0x3eb63da7	0.35593912

ResidualBlock.2.conv2.conv_layer.weight f4 [4, 4, 3, 3]
0	0xbeae723d	-0.34071532
1	0xbd3e2006	-0.04641726
2	0x3dbd5f5b	0.09246703
3	0x3e023edc	0.12719291
4	0xbf0c6dd4	-0.54855084
5	0x3cfce69d	0.030871684
6	0x3d6c301c	0.05766307
7	0x3e884676	0.26616257
8	0xbe542dbc	-0.20720571
9	0xbd1099f5	-0.035303075
10	0x3cc3fbcd	0.023923779
11	0x3db939db	0.09044238
12	0xbe0f16d6	-0.13973555
13	0xbd2f8d2b	-0.042859238
14	0x3d2a89b7	0.04163524
15	0x3c593e61	0.013259501
16	0x3dbffa5c	0.09373924
17	0xbe28644f	-0.16444515
18	0x3eb25e7c	0.3483771
19	0xbdda208a	-0.106507376
20	0xbd063a5c	-0.0327705
21	0xbd7387e7	-0.05945578
22	0x3ede9c52	0.43478638
23	0x3d281f2f	0.041045364
24	0xbdd06bd9	-0.1017682
25	0xbd8cdd0a	-0.06878097
26	0x3e4fd7f7	0.20297228
27	0xbddb43d0	-0.107062936
28	0xbd3ed93c	-0.04659389
29	0x3d32b33b	0.04362796
30	0x3dde9457	0.10868137
31	0xbdb2094f	-0.08693182
32	0x3d1b734f	0.037951764
33	0x3b2dd859	0.0026526658
34	0x3ddee439	0.10883374
35	0xbe348621	-0.17629291
36	0x3defc56f	0.11707579
37	0xbd9cfb08	-0.07665068
38	0xbd97c7c0	-0.07411146
39	0xbe0affcf	-0.13574146
40	0x3eb04f31	0.34435418
41	0x3e176556	0.1478475
42	0xbc3fb665	-0.011701201
43	0x3df077d8	0.117416084
44	0x3ea540f0	0.32276106
45	0x3e7ad26a	0.24494329
46	0x3e847790	0.2587247
47	0xbe4de8aa	-0.20108286
48	0x3e5ac8b6	0.21365628
49	0x3e673d8a	0.22582069
50	0xbea0c09a	-0.31396943
51	0xbd2bc799	-0.041938398
52	0xbe87786d	-0.26459065
53	0x3e9edfa1	0.3102999
54	0x3d73d91d	0.059533227
55	0x3dfafc70	0.1225518
56	0x3d8d3a8c	0.068959326
57	0x3d94f6d8	0.07273644
58	0x3c7a7997	0.015287778
59	0x3e2e5c9c	0.17027515
60	0x3de66b98	0.11250991
61	0x3d47df07	0.04879668
62	0x3d74b082	0.059738643
63	0xbe1ff881	-0.1562214
64	0xbe79e0be	-0.24402139
65	0x3dd55532	0.1041664
66	0x3db62635	0.08894006
67	0xbd12891d	-0.035775293
68	0xbe093bd8	-0.13401735
69	0xbe3cc6a8	-0.18435156
70	0x3e0610f0	0.13092399
71	0xbd7c16db	-0.061545234
72	0x3d4414c1	0.047871355
73	0x3ce9d208	0.028542534
74	0xbdac565b	-0.084149085
75	0x3cfa5ad8	0.030560896
76	0xbe540e75	-0.2070864
77	0xbdf4ed9a	-0.119593814
78	0x3d99fd54	0.07519022
79	0xbe909b86	-0.28243655
80	0xbe318638	-0.17336357
81	0xbe2b2cdb	-0.1671633
82	0xbe1cc29d	-0.15308614
83	0x3d308613	0.043096613
84	0xbdf44986	-0.11928086
85	0xbe52d3aa	-0.20588556
86	0x3b650b48	0.003494935
87	0x3df2e5c0	0.118602276
88	0xbdc4b643	-0.09605076
89	0xbdcf86d5	-0.10133139
90	0xbc823d61	-0.015898408
91	0x3e0b95ab	0.13631313
92	0xbdac7233	-0.08420219
93	0x3bab6476	0.0052304817
94	0xbd089b64	-0.033351317
95	0xbe61ff8c	-0.2207014
96	0xbd0bbb57	-0.034114208
97	0xbd95cdf5	-0.07314674
98	0x3c2a4d99	0.010394477
99	0x3e18fc50	0.1494
100	0x3e945355	0.28969827
101	0xbdf93a42	-0.12169315
102	0x3cee093f	0.029057143
103	0x3ed3ddb5	0.41380087
104	0xbdc7d710	-0.09757817
105	0xbc8c17fb	-0.017101279
106	0x3e511842	0.2041941
107	0xbe1ea2e8	-0.15491831
108	0x3b506d9d	0.0031803616
109	0xbe912a3e	-0.2835254
110	0xbe532815	-0.20620759
111	0x3d6b4bef	0.057445463
112	0x3e104f9f	0.14092873
113	0xbe5810d1	-0.21100165
114	0xbd8f4852	-0.06996216
115	0xbd4ae8f3	-0.049538564
116	0xbf04c17b	-0.5185773
117	0x3c0ae743	0.008477989
118	0xbdb978a8	-0.090562165
119	0xbe936946	-0.28791255
120	0xbe904dc4	-0.2818433
121	0xbe52f51f	-0.20601319
122	0x3dc02fb8	0.09384102
123	0xbe1dadbf	-0.1539831
124	0x3d46d84b	0.048546117
125	0x3d56648c	0.052341983
126	0xbe311a93	-0.17295294
127	0xbaedd429	-0.0018144894
128	0xbd2140ae	-0.039368324
129	0xbd0c98c0	-0.03432536
130	0x3e5924b3	0.21205406
131	0xbeac32b2	-0.33632427
132	0xbd2713de	-0.04079043
133	0xbbd950d9	-0.0066319522
134	0x3e4c4790	0.19949174
135	0x3be7f763	0.0070790513
136	0x3d482840	0.04886651
137	0x3beeaabc	0.0072835367
138	0x3e2d31b5	0.16913493
139	0xbd621c59	-0.055202816
140	0xbe6eb3e7	-0.23310815
141	0x3dbc51e5	0.09195308
142	0x3e05696c	0.13028497
143	0xbd8388c8	-0.06422573

ResidualBlock.2.conv2.conv_layer.bias f4 [4]
0	0x3df4c98a	0.11952503
1	0x3d635307	0.055499103
2	0xbedbbc2b	-0.42916998
3	0xbea3af0a	-0.31969482

ResidualBlock.2.conv2.norm_layer.weight f4 [4]
0	0x3f0514cf	0.51984876
1	0x3e8f24a1	0.27957633
2	0x3f2f1cf8	0.6840358
3	0x3f1ff541	0.624836

ResidualBlock.2.conv2.norm_layer.bias f4 [4]
0	0xbe3419e0	-0.17587996
1	0x3edeabad	0.43490353
2	0xbf1b9b35	-0.607837
3	0xbcddb5de	-0.02706426

ResidualBlock.2.conv3.conv_layer.weight f4 [9, 4, 1, 1]
0	0xbe078ce2	-0.13237336
1	0x3e037fd7	0.12841736
2	0xbe8c2909	-0.27375057
3	0x3e92dd20	0.2868433
4	0x3e982228	0.2971356
5	0x3f0b23c2	0.5435144
6	0xbe4e8f30	-0.20171809
7	0x3eb15126	0.34632224
8	0x3e7e138c	0.24812144
9	0x3d553c0f	0.05205923
10	0x3dbf230b	0.09332856
11	0xbe61dceb	-0.2205693
12	0xbe839e0e	-0.25706524
13	0xbdf37dba	-0.11889215
14	0x3e817b56	0.2528941
15	0x3eeca029	0.46215943
16	0x3df3b638	0.1189999
17	0xbdc42be0	-0.09578681
18	0x3ef77cfe	0.4833755
19	0xbe371164	-0.17877728
20	0x3e5c41c0	0.21509457
21	0x3f311985	0.69179565
22	0xbe794598	-0.24342954
23	0x3e55709d	0.2084374
24	0xbb46f991	-0.0030361156
25	0xbe99374a	-0.29924995
26	0xbf10f9fa	-0.56631434
27	0xbe594cc0	-0.21220684
28	0x3ee50942	0.44733626
29	0xbef200ce	-0.4726624
30	0xbeb3a114	-0.3508383
31	0x3eb774c9	0.35831288
32	0x3e92e64c	0.28691328
33	0xbec6fed8	-0.38866305
34	0xbe9d6108	-0.3073809
35	0xbeda6a87	-0.426594

ResidualBlock.2.conv3.conv_layer.bias f4 [9]
0	0x3e8a1ef4	0.2697674
1	0x3ec0e8df	0.37677667
2	0x3ebf1ccd	0.3732666
3	0xbebc3e5b	-0.36766323
4	0x3ce169f8	0.02751635
5	0xbdf86b5c	-0.12129852
6	0x3e36db52	0.17857102
7	0x3ef3d309	0.47621945
8	0x3c9e257e	0.019304987

ResidualBlock.2.conv3.norm_layer.weight f4 [9]
0	0x3f84d57e	1.0377653
1	0x3fa9f1f3	1.3276962
2	0x3f1cd862	0.61267674
3	0x3f620ef8	0.8830409
4	0x3ef8cd24	0.4859401
5	0x3f4012e6	0.75028837
6	0x3f8be203	1.0928348
7	0x3f99b371	1.2007886
8	0x3f712fff	0.9421386

ResidualBlock.2.conv3.norm_layer.bias f4 [9]
0	0xbd21c188	-0.039491206
1	0x3e64e60d	0.22353382
2	0xbbea1997	-0.007144164
3	0x3e578ad8	0.21049058
4	0xbe033c39	-0.12815942
5	0x3dcbd8af	0.099534385
6	0xbc2e6a71	-0.010645495
7	0xbe2992c7	-0.16559897
8	0xbeaa4a61	-0.33259872

DeconvBlock.0.conv_transpose.weight f4 [9, 9, 3, 3]
0	0x3d7fd14f	0.06245547
1	0xbd4194dd	-0.047261108
2	0xbd1e9f67	-0.038726237
3	0xbcdb73fa	-0.0267887
4	0xbe02a288	-0.12757313
5	0xbe8f046b	-0.27933058
6	0xbce029d6	-0.027363699
7	0xbe39eae0	-0.18156004
8	0xbd4224da	-0.047398426
9	0xbd4c7c4d	-0.04992323
10	0xbd49a63c	-0.0492308
11	0xbde3b405	-0.111183204
12	0xbd36560b	-0.04451565
13	0xbe75200d	-0.23938008
14	0xbe3c3cf1	-0.18382622
15	0x3d760c4e	0.06007033
16	0xbc21a77f	-0.009866594
17	0x3dc88cdd	0.097924925
18	0x3dc82da2	0.09774329
19	0xbdc49aea	-0.0959986
20	0x3c8e28b3	0.017353391
21	0x3c441c55	0.0119696455
22	0xbdcffa5b	-0.101551734
23	0x3e07f638	0.13277519
24	0x3ca09d0c	0.019606136
25	0xbdb120fb	-0.08648869
26	0xbd634bab	-0.055492084
27	0x3c1e5446	0.009663647
28	0xbcfa1964	-0.030529685
29	0xbe3aa624	-0.1822744
30	0x3e3ccbbd	0.18437095
31	0xbea5e6ad	-0.32402554
32	0xbc808ed6	-0.01569311
33	0xbc1c73e8	-0.009549119
34	0xbe2e7cb6	-0.17039761
35	0xbd8d061f	-0.06885933
36	0x3cf9e181	0.030503036
37	0xbdc8f853	-0.09812989
38	0x3e29b526	0.16573009
39	0xbdfa57b4	-0.12223759
40	0xbc89c3a1	-0.016816916
41	0xbdd4d4ef	-0.10392176
42	0x3e2b54ba	0.1673154
43	0xbcfd2ed9	-0.030906128
44	0xbcd6f943	-0.026241904
45	0x3c1f4353	0.009720641
46	0xbda5e3b3	-0.08100071
47	0xbe001a32	-0.12509993
48	0xbc75feb3	-0.015014338
49	0xbe1b27c1	-0.15151884
50	0xbd286d78	-0.041120023
51	0xbca341d0	-0.019928843
52	0xbe1977b7	-0.14987074
53	0x3e10ee25	0.14153345
54	0xbc3cfdfa	-0.011535162
55	0xbd96f2a5	-0.073704995
56	0xbdb813dd	-0.089881636
57	0xbd618e56	-0.055067383
58	0xbde581ff	-0.112064354
59	0xbe8bb96a	-0.27289897
60	0xbd237412	-0.039905615
61	0x3d375ba5	0.044765133
62	0xbe38ec00	-0.18058777
63	0xbc9232c1	-0.017846467
64	0x3e475988	0.19467747
65	0xbdfb4dcd	-0.12270699
66	0x3e4b3a5f	0.19846486
67	0xbc93b8df	-0.01803249
68	0xbd9d0f6a	-0.076689556
69	0x3d15efc4	0.03660561
70	0xbe24aad8	-0.16080797
71	0xbdad6bc7	-0.084678225
72	0x3d1fe1b4	0.039033607
73	0x3d062005	0.03274538
74	0xbdaf1756	-0.08549373
75	0x3d28e9b2	0.041238494
76	0x3dc2dbfe	0.095146164
77	0xbe44c01c	-0.19213909
78	0x3d647403	0.0557747
79	0x3cf2e415	0.029649774
80	0xbd713c8f	-0.058895644
81	0x3d7b1ecf	0.06130868
82	0xbd08448e	-0.033268504
83	0xbd74b92d	-0.05974691
84	0xbe6636bb	-0.22481816
85	0xbe78dae6	-0.24302253
86	0xbe2a4d44	-0.16631037
87	0xbdc08a78	-0.09401411
88	0xbe923c63	-0.28561696
89	0xbd2e5d00	-0.04256916
90	0x3d3200c3	0.043457758
91	0xbd863312	-0.0655271
92	0xbd4116ef	-0.04714101
93	0xbe069053	-0.13140993
94	0xbe2b8238	-0.16748893
95	0xbd93bb15	-0.072134174
96	0xbc5ce998	-0.013483427
97	0xbea78212	-0.32716423
98	0xbd8b5906	-0.06804089
99	0xbe707142	-0.23480704
100	0xbdf1ed6a	-0.11812861
101	0xbd8e07e6	-0.069351
102	0x3df5d5e0	0.12003684
103	0xbe2bd004	-0.1677857
104	0xbea930ee	-0.33045143
105	0x3cb0b323	0.021569794
106	0x3d77559e	0.060384385
107	0xbd884b32	-0.06654967
108	0xbcd7d450	-0.026346356
109	0xbe3e1f5b	-0.18566649
110	0xbdf25c74	-0.1183404
111	0xbd7f1366	-0.06227436
112	0xbe8056e5	-0.25066295
113	0xbe0803f7	-0.13282762
114	0xbe73a163	-0.23792033
115	0xbd8589e5	-0.06520442
116	0xbdfc134e	-0.123083696
117	0xbdd7a6aa	-0.105298355
118	0x3ce4d654	0.02793423
119	0xbe51b395	-0.20478661
120	0xbe3c8f38	-0.18414009
121	0xbe48899e	-0.19583747
122	0xbd339034	-0.043838695
123	0xbd9c797c	-0.07640359
124	0xbe4466ff	-0.19179915
125	0xbcaae51f	-0.020861207
126	0xba415cc9	-0.0007376192
127	0xbdfbdcc2	-0.122979656
128	0xbd81387b	-0.06309601
129	0xbe8316c9	-0.2560332
130	0xbe951a93	-0.29121837
131	0xbe1664b6	-0.14686856
132	0xbe815a55	-0.2526423
133	0xbe572b7c	-0.21012682
134	0xbe0ef470	-0.13960433
135	0x3d59d718	0.053183645
136	0x3c224737	0.009904674
137	0xbddca46b	-0.10773548
138	0x3d044ffb	0.032302838
139	0x3dbdc037	0.09265178
140	0xbd1427d6	-0.036170803
141	0xbd00e292	-0.031466074
142	0xbd6501ed	-0.05591004
143	0x3d916be5	0.071006574
144	0xbdf10bbe	-0.11769818
145	0xbd9ac68d	-0.07557402
146	0x3cb52639	0.022112953
147	0xbd15929d	-0.036516774
148	0xbe6cf862	-0.23141626
149	0xbde8aaf7	-0.11360734
150	0xbe178262	-0.14795831
151	0xbdff37ea	-0.12461837
152	0xbdb87ecc	-0.090085596
153	0xbe016ec7	-0.12639914
154	0x3dd1d3be	0.10245465
155	0xbdf1318a	-0.11777027
156	0xbe3ed74d	-0.18636818
157	0xbd41e56f	-0.047337946
158	0x3da0e509	0.07856185
159	0xbe458202	-0.19287875
160	0xbe27b8f4	-0.16379148
161	0x3d168d2b	0.036755722
162	0xbdc6bc79	-0.09703917
163	0x3e9f87a7	0.31158182
164	0xbe6a8c2c	-0.22905034
165	0x3e136abc	0.14396185
166	0x3d8e126d	0.06937108
167	0xbdb8db60	-0.090262175
168	0x3e4c2f82	0.19939998
169	0xbe52547c	-0.2054004
170	0xbcf59806	-0.029979717
171	0xbb193bd2	-0.0023381603
172	0x3d91d9ac	0.07121596
173	0xbe14972b	-0.14510791
174	0xbab5b569	-0.0013863269
175	0xbcdc9149	-0.026924746
176	0xbd79a3c8	-0.06094721
177	0x3c459def	0.01206158
178	0xbdbebcd5	-0.093133606
179	0xbd229e0c	-0.039701506
180	0xbc7bdfd4	-0.015373189
181	0x3dc6bb16	0.097036526
182	0x3d751934	0.05983849
183	0x3d8a52ab	0.06754049
184	0x3e1b8be9	0.1519009
185	0x3ccaf15e	0.024773296
186	0x3d9752da	0.073888496
187	0x3db7bb62	0.08971287
188	0x3c415227	0.011799372
189	0x3e26d4e3	0.16292147
190	0xbe246294	-0.1605323
191	0x3e48d210	0.19611382
192	0x3caab9cf	0.020840554
193	0x3e195beb	0.1497647
194	0xbdbf052f	-0.093271606
195	0xbde00ed8	-0.10940331
196	0x3cadc200	0.02121067
197	0xbddd61f1	-0.108096965
198	0xbdc96ed8	-0.09835595
199	0xb9d01b27	-0.00039693082
200	0xbc63ef2b	-0.013912003
201	0xbe466ea2	-0.1937814
202	0xbe0291db	-0.12750952
203	0xbdfbf36b	-0.12302288
204	0xbca2a0c8	-0.019852057
205	0xbd1ffbe4	-0.03905858
206	0xbd66bdd2	-0.05633337
207	0x3d1911b6	0.037370406
208	0xbdb445ba	-0.08802362
209	0xbcdc76fa	-0.026912201
210	0x3d3c95fc	0.046041474
211	0xbe11a37a	-0.14222518
212	0xbe1ae935	-0.15128024
213	0xbd9b46e4	-0.07581881
214	0xbe4c88e5	-0.19974096
215	0x3ccc158b	0.024912616
216	0x3be01a55	0.0068390765
217	0xbcef4d3d	-0.029211635
218	0x3d131f70	0.035918653
219	0x3d1ec3c2	0.038760908
220	0x3d13857d	0.036015976
221	0x3d71ba16	0.059015356
222	0xbd3f330b	-0.046679538
223	0xbdc22bd4	-0.09481016
224	0xbd86fae1	-0.0659082
225	0x3d2032a2	0.039110787
226	0x3d8aca67	0.067768864
227	0x3e013417	0.12617527
228	0x3e3dd090	0.18536592
229	0x3eacf596	0.33781117
230	0x3cba4101	0.022736074
231	0x3db61234	0.08890191
232	0xbaa4d40c	-0.0012575402
233	0xbcb1797b	-0.021664372
234	0xbcb7f33a	-0.022454847
235	0x3e18f102	0.14935687
236	0xbe2ae4cc	-0.16688842
237	0xbd3df777	-0.04637858
238	0xbd30d33e	-0.043170206
239	0xbe115405	-0.14192207
240	0xbde65378	-0.11246389
241	0xbe919b93	-0.28439006
242	0xbdbc6dcb	-0.09200629
243	0xbd6e625d	-0.058199275
244	0xbe1f9925	-0.15585764
245	0x3cde9866	0.027172279
246	0xbd881a19	-0.06645603
247	0xbc3f997d	-0.011694309
248	0x3d7db5f2	0.061941095
249	0xbdc5d9c7	-0.09660678
250	0x3d9edcf1	0.07756985
251	0x3dbe2ed2	0.09286274
252	0x3cf302f3	0.029664492
253	0xbb83be47	-0.0040204856
254	0x3bf6ee8d	0.0075357617
255	0x3df55ca1	0.11980558

DeconvBlock.0.conv_transpose.bias f4 [9]
0	0x3e3e9b34	0.18613893
1	0xbcf2f369	-0.029657083
2	0x3e004d21	0.12529422
3	0x3b666d47	0.003516035
4	0x3e074441	0.1320963
5	0xbc345c15	-0.011008282
6	0x3e2b3055	0.16717656
7	0xbe6b5077	-0.22979914
8	0x3e10324d	0.14081688

DeconvBlock.0.norm_layer.weight f4 [9]
0	0x3edc8c32	0.4307571
1	0x3ee30c4d	0.44345322
2	0x3e81800e	0.2529301
3	0x3ece22a7	0.40260813
4	0x3e80b527	0.25138208
5	0x3eee39f7	0.465286
6	0x3f1fb682	0.6238786
7	0x3eaf6ab6	0.342611
8	0x3f02472c	0.5088985
