transforms/experimental/mosaic_TransformerResNextNetwork_Pruned10.pth (torch_old, 265900 bytes, 58 tensors)

ConvBlock.0.conv_layer.weight f4 [32, 3, 9, 9]
00000000: 3315 2e3e 1253 f73d a73c 073e 6bc9 b8bd
00000010: c9c1 f9bd fadd 29be 12a0 a5bd aafe 443d
00000020: 793d acbc a7db c43d 0abe 203e f65b f43d
00000030: ef9b c1bc e48b 99bd 3471 2dbe 1c28 26be
00000040: eac0 1a3d 7bc6 07bb 9f69 103e 3345 2f3e
00000050: 28cb 853e 7733 373e 5457 693d 04a3 aebd
00000060: af71 07be 3fc6 23bc 5786 9d3c 3953 f43d
00000070: cce3 eb3d fa53 bb3d 686e f93c d279 a2bb
00000080: 046a 6ebd 6259 96bd 292b 27be 62b9 bbbd
00000090: 4365 b33d b5f3 bd3d e1ba 183d 8529 06bb
000000a0: e9ac 2e3d 2cd5 b63c f167 d1bd 18e6 77bd
000000b0: 0394 7dbd a6ca 883d 023a 293d aba9 10bd
000000c0: 70e3 e2bd 0412 aebd ea3b a83d ed88 f43d
000000d0: 8da3 f63c 983a a0bd 8db0 b33d f99b 87bd
000000e0: cbd4 dbbd eade 1ebe b94f 24bd 97a3 c03d
000000f0: 0abb fa3b 4ff6 ad3c ebfe b7bd 8f0d 203d
00000100: 2de3 89bd 0ec5 24be fc60 e5bd 920b a7bd
00000110: f830 8c3c 481b 0a3c 2cf3 a3bd 95f0 eb3c
00000120: 21bd f4bd b96e 44be 37fe 43be 2bc8 04be
00000130: 9b57 153d 8a00 e73d e121 ae3d 0a0f ba3c
00000140: 516f 973d ef3e 9a3e 2ae9 7f3e e9b0 e63d
00000150: 02dc 8fbd 5bb6 6fbe 1a80 00be a12f a0bd
00000160: 2b8c 173e a246 fe3d 60b7 623e a9db 193e
00000170: 0a76 313e ff6d acbd 6dea 23be 4e6d a6be
00000180: c680 b4bd d409 dc3d 7365 c13d fa9c c03d
00000190: 2057 0a3e 05e7 763e 8eb7 bd3d 02aa 02bd
000001a0: 29dc 53be 1064 27be 94a8 253d a6b1 263e
000001b0: 30db a53d 0c35 1c3e 8e29 013e 225d 09bd
000001c0: 5e48 303d 5bb5 7abd 8178 a2bd 9180 4bbd
000001d0: a33b 613c a647 b83d 2a91 dabc 98f7 3abd
000001e0: 43f3 00be cfda 87bc 4444 f3bc f8fc 733c
000001f0: 2e26 e139 17f0 2dbd a0b4 f9bc b80d 19bb
00000200: 540a 37be 2bc8 11be 9e70 af3c 6889 073e
00000210: 0f7d 023e 3090 103d 1b24 793d 60ac c2bd
00000220: 7235 77bd 39b0 16be c1e6 4bbe f6a7 bfb9
00000230: 54b5 cf3d 55fd c63d bd72 0d3e fbdb 9d3d
00000240: 3dc0 65bd 7536 0dbe 1f1e 7abe 7b12 25be
00000250: 0f75 83bc 18bb 123e 7aac 673e cbf4 a73d
00000260: 952d 103e b656 65be 57fd 5cbe 05db 7cbe
00000270: a0aa b4bd d2aa c53d eb73 563e ed34 853e
00000280: 3c55 133e f187 733e 0280 c03e ccda 8c3e
00000290: d3d1 b23d 1de9 0dbe 491d 78be c1bd 88be
000002a0: 1a27 03be 7c29 b33d 938c 113e 82b7 7d3e
000002b0: 2c1f 103e a396 c33d 85bf 46be 279c 60be
000002c0: cf11 9fbe bea7 79be 51f8 9e3d 5c85 333d
000002d0: f18f ef3d beb8 413e d449 a93d b3d9 debc
000002e0: dff8 34be df90 91be 38a1 80be a14a 05bc
000002f0: c6a6 043e 01ac d63d b77e 553d 4cdb 8ebc
00000300: a32a 95bd 0629 bfbd 381e fcbd cae9 15be
00000310: 095b 9ebd 9e07 173c a5d5 d63d 8eb0 28bc
00000320: f483 97bd f144 3fbe 6501 46bd f862 c7bd
00000330: ab7f 06bd 5fd5 42bc 3d57 863b c734 39bd
00000340: a110 95bd da8e 24be 08a5 3cbe ec11 c0bd
00000350: 960e 4e3d 88e0 393d ac2d 123e 94c8 ae3d
00000360: 5344 65bd 70cb bebd 2341 38be 2f7f 37be
00000370: 9e4e 79bc ed34 cd3d 14b3 1e3e f614 4a3e
00000380: 1e77 163e d9ec 96bd aa7c 50be 0ce3 2ebe
00000390: b074 34be 1a71 e83d 6a82 713e ed70 6d3e
000003a0: 1100 263e 6e29 913e 9817 17be cfd4 aabe
000003b0: 3dcf 3abe 5775 9cbb e68c 493e a06a a03e
000003c0: 4456 8a3e 7208 ad3e 40aa bf3e a008 613e
000003d0: 5eba 1b3e d26b 3a3e 8c25 8c3d fb68 133e
000003e0: 0175 fb3c b30d c4bd f1e5 e9bd a806 debe
000003f0: 75f5 543e 98b0 333d c8a1 d63d 2189 743d
0.17000274 0.12076391 0.13206731 -0.090227924 -0.12195165 -0.16588584 -0.080871716 0.04809443
-0.021025406 0.09612208 0.15697494 0.11931603 -0.023633925 -0.07497385 -0.16937715 -0.16226238
0.037781633 -0.0020717669 0.14102791 0.17116241 0.26131558 0.17890726 0.05696805 -0.085271865
-0.1322696 -0.009995996 0.019229097 0.11929936 0.11518058 0.09146877 0.030448154 -0.00495837
-0.058206573 -0.07341267 -0.16325058 -0.09166218 0.087595485 0.09274999 0.037287597 -0.0020471525
0.04264537 0.022318445 -0.102249034 -0.06052217 -0.061908733 0.06679277 0.041315086 -0.035318058
-0.110785365 -0.0849953 0.08214553 0.11940179 0.030107284 -0.07823676 0.08773909 -0.06621546
-0.107339464 -0.15514722 -0.040115092 0.09406202 0.0076516913 0.021235613 -0.089841686 0.03907543
-0.067327835 -0.16090795 -0.11200139 -0.08156504 0.017113194 0.008429356 -0.08005366 0.028801242
-0.11950136 -0.19182862 -0.19139944 -0.12966983 0.0364605 0.112794 0.08502556 0.02271225
0.07394279 0.3012614 0.24991289 0.11264212 -0.07024385 -0.23409407 -0.12548867 -0.078215845
0.14799564 0.12415816 0.22140265 0.150252 0.17330185 -0.084194176 -0.16007395 -0.32505268
-0.08813624 0.10744062 0.09443178 0.09404941 0.13509798 0.24111564 0.09263526 -0.031900413
-0.20689453 -0.16346765 0.04044397 0.16278705 0.08098447 0.15254611 0.12613508 -0.033536084
0.043037765 -0.06120811 -0.079331405 -0.049683157 0.013747129 0.08998041 -0.026680548 -0.04564628
-0.12592797 -0.016583828 -0.029695638 0.014891855 0.0004294379 -0.042465296 -0.030481637 -0.0023354124
-0.17875034 -0.14236514 0.021416005 0.1323601 0.12743019 0.035293758 0.06082545 -0.09505534
-0.060353704 -0.14715661 -0.19912244 -0.000365555 0.101420075 0.09716288 0.138133 0.077079736
-0.056091536 -0.13790305 -0.24425553 -0.16120331 -0.016047029 0.14329183 0.22624388 0.082009874
0.14079888 -0.22396359 -0.21581016 -0.24692924 -0.08821607 0.09651722 0.20942657 0.26016942
0.14387983 0.23782326 0.37597662 0.2751068 0.08731427 -0.13858457 -0.24229921 -0.2670727
-0.12807885 0.08748147 0.14213781 0.24777034 0.14074391 0.09550216 -0.19408996 -0.21934567
-0.31068274 -0.24380395 0.07762206 0.043828353 0.116973765 0.1891813 0.08266035 -0.027203416
-0.17673062 -0.2843084 -0.25123 -0.008135469 0.12954244 0.10482026 0.052122798 -0.017438553
-0.07283523 -0.093339965 -0.12310451 -0.14639965 -0.07732207 0.009218125 0.10489968 -0.010296
-0.07398215 -0.18678643 -0.048341174 -0.09735674 -0.032836597 -0.011891692 0.004099755 -0.045216348
-0.07278562 -0.16070119 -0.1842233 -0.09378418 0.05030688 0.045380145 0.14275235 0.08534351
-0.055973362 -0.093161464 -0.17993598 -0.1791961 -0.015216498 0.100198604 0.15498 0.19734558
0.14693877 -0.07369394 -0.20360056 -0.17078799 -0.17622638 0.113496974 0.23584905 0.23187609
0.16210963 0.2835192 -0.14755094 -0.33365485 -0.18243118 -0.00477473 0.19682655 0.31331348
0.2701894 0.33795506 0.37434578 0.21975946 0.15207812 0.18205193 0.06843099 0.14395516
0.03069544 -0.095729254 -0.11420811 -0.43364453 0.2079676 0.043869585 0.10480076 0.05970109

ConvBlock.0.conv_layer.bias f4 [32]
00000000: 0b20 923c 518e 8cbd 054e 7ebd 00e7 d2bd
00000010: 0e32 8fbd 4653 cebd 825c 293d 5d96 d33d
00000020: cd11 84bb cc94 10bd b31f b73d d323 2b3d
00000030: c3c5 98bc 2b00 433d 9f3d 4f3d 43cf b4bd
00000040: ede1 7bbd f21f 23be 7932 f73d e345 723e
00000050: 689a 28be cc8d 113d d42e 7dbd 2376 a13d
00000060: 94d4 ea3d 12f6 263b a7dd 93bd c225 ad3c
00000070: e0a7 f1bc f82d 293d 3b1d aebc aef5 eabd
0.017837545 -0.06863082 -0.062086124 -0.10297966 -0.06991969 -0.10074477 0.041347988 0.10331414
-0.0040304423 -0.035298154 0.08941593 0.04178221 -0.018648988 0.047607582 0.050595876 -0.088285945
-0.061494756 -0.15930155 0.12070174 0.23659472 -0.16465151 0.03553562 -0.061812237 0.07883861
0.11466327 0.002547626 -0.07220011 0.021136168 -0.029498994 0.041303605 -0.021254173 -0.11472641

ConvBlock.0.norm_layer.weight f4 [32]
00000000: 9003 b13e 172a ea3e 04fa ad3d fa08 a93e
00000010: bbd6 d93e 2051 813e d115 503f 35b5 293f
00000020: 5ca0 b23e 664f 7d3f a0aa 373f 38ff 243f
00000030: 55c8 043f 076a 593e 5402 173e 7b15 5d3f
00000040: c58b 0a3f b97a 513f cbc2 8b3e e06d a63e
00000050: c215 d73e e2df f13e 1f1e 153e 70d0 783e
00000060: 2195 783f fd96 b73e 3d0e 233f e928 623e
00000070: 7f6f 8c3e 9c1c 823e 4fb4 2f3f da63 2b3f
0.3457303 0.45735237 0.08494952 0.3301466 0.4254664 0.25257206 0.8128329 0.66292125
0.3488797 0.9894928 0.7174473 0.6445193 0.5186818 0.21231852 0.14746982 0.863609
0.5411952 0.81827885 0.27297053 0.32505703 0.42008787 0.47241122 0.14562272 0.24298263
0.9710255 0.35857382 0.636936 0.22085918 0.27428815 0.25412452 0.68634504 0.66949236

ConvBlock.0.norm_layer.bias f4 [32]
00000000: 993d 6f3e 4d0c 2d3e 75dd b23e 20fc 35bd
00000010: 9855 68be a759 0ebe 6d09 8c3e f929 b73e
00000020: 643b 163d 5967 843e 738a 053f f41a 133f
00000030: 2895 1abe d3eb 53be 622c 0ebe 136c ed3e
00000040: 62eb ffbc 89ae 2a3f 3e1d 56bd 0fce 4f3e
00000050: c7d0 053f 7ad6 7a3b 6c5e 193e 9110 0abb
00000060: 1c21 f03e 13e1 8bbd 403c 513d 243c a4bd
00000070: 9d22 d93e f633 20be 2012 233f 1592 4c3c
0.23363341 0.16899224 0.34934583 -0.0444299 -0.22688901 -0.13901387 0.2735094 0.3577421
0.036677733 0.25860098 0.5216438 0.57463 -0.15095961 -0.20695429 -0.13884118 0.46371517
-0.031240169 0.6667257 -0.05227398 0.20293449 0.52271694 0.003827481 0.14977425 -0.0021067003
0.4690026 -0.06830039 0.05108285 -0.080192834 0.4240922 -0.15644822 0.6369953 0.012486001

ConvBlock.2.conv_layer.weight f4 [32, 32, 3, 3]
00000000: 5dec 1dbe 39e2 963c ea03 9a3d 8307 febd
00000010: d913 83bd 17a5 3fbc 40f5 18be 8670 5dbd
00000020: f0b2 a63d 6453 c93d ab76 a1bc e52a e1bc
00000030: 0260 4b3b 8f54 b0bc d330 46bd aa8f 31bc
00000040: da59 11bd df5e 09be 869e 8c3d d4a6 fdbd
00000050: 5be2 4fbe b42c bb3d 5507 fdbd b725 24be
00000060: 249d e63d cda4 ccbd 2756 16be 7242 93bd
00000070: 3bb0 c1bd 4e27 23be 7b17 41be 9954 1dbe
00000080: b837 ddbd 84b2 40be b107 4bbe 20f9 a1be
00000090: 82d9 0bbd c069 203d 2f21 0a3d 2bf4 4cbd
000000a0: 27cd babd 2791 2ebc daa4 c23a cdfe 0fbd
000000b0: c61a cebd a43c 45be 8294 9ebd cfdd 833d
000000c0: cc49 32be 430a 0ebe a457 78bd 57ef 53bd
000000d0: e139 ad3b f854 1eba 032b e8bd 19f0 e8bd
000000e0: 8473 43bd 4486 8cbd 60d5 15bd 605b 32bc
000000f0: 906e 233b 7118 633c 20bb d8bb d64f 7abb
00000100: e389 e63c 00cd a13d 08ff d9bd 04e5 b4bc
00000110: 9f22 1bbd 0af2 4dbe a65f 76bd 0f1c 45be
00000120: c2ef 17be 9384 06be 1802 cebc 8db1 3fbd
00000130: b888 dd3c 38d5 473d 57cd 543d f436 023e
00000140: a451 333e 240e 9d3e 3b21 503e 5d13 073e
00000150: 832b 383e b58c 763d 1002 1b3e 293e 5e3e
00000160: 8d3a f73d 8f04 2b3e d9bc 29bc 9c62 6cbc
00000170: 3ba6 b83d 819f 03bd b974 12bd e8b2 08bd
00000180: 462b b83d 891d 9bbb ba8a 503c 9225 013e
00000190: d12b 253d 1d40 f8bd 8b2b 8b3d c2a4 d73d
000001a0: 56ef e3bd 757e 88bd c919 8e3d b2ff d8bb
000001b0: f232 f93d 714b f23c f29c 0f3e 2fbf dd3c
000001c0: e8d4 11bd 49aa 0c3e be23 d03d b18b 563d
000001d0: 78fd af3d f45c 1dbe 9637 37be acd4 76bd
000001e0: 7884 0fbe 8d89 83be d831 36be 269c 1dbe
000001f0: e923 4ebe a93e 5fbe a9e7 a73c 59d7 2a3e
00000200: c30c ae3e a8b6 42bd 9126 363d 2a05 9b3e
00000210: ab0e 1abe 9d0e 5cbd 295d 463e 1f40 b33d
00000220: 3df6 5dbd ba88 94bd 09cb da3c c456 97bd
00000230: e4c1 12bd bf9f 863d 6d25 7a3d 5968 903d
00000240: c7eb 86bd 7188 f8bd 8c64 6bbe b968 25be
00000250: 5a49 ddbd aa25 acbe 107a e3bd bcfc 10be
00000260: 02bd e7be 151d 01bd 9fc2 fabd d7f7 b8bc
00000270: 2198 823d aa79 15bd 6012 ae3d ae09 8c3d
00000280: 761f b6bd c72b c53b e9aa 963e 4aa8 493e
00000290: faa9 453e 2b45 6f3e 39a7 023e a5c6 623e
000002a0: c4ce 973e e82e 4b3e 2a07 313e e1e8 0cbe
000002b0: 3eaf d0bd 43c8 0cbd ba92 f8bd 4de4 84bd
000002c0: 6cd8 8b3d 1ec4 1ebe eab3 dbbd 5dab 9d3d
000002d0: b7ce cf3e 27f2 aa3e da52 fc3a f861 993e
000002e0: 0437 433e 4b83 23bd fb8b 913e 0787 6d3e
000002f0: 7da1 71bd a9db babc 0a5d b53d 8b29 163e
00000300: 20e7 123d 4579 b73d 764e 4e3e 5059 2d3d
00000310: c3df 8a3d 06e8 f53d 3a31 b43d 2948 16be
00000320: 1aa2 c4be ea02 343e 0803 d8bd 23ba dcbe
00000330: 8c75 693e 4fca 3ebc 8a40 a6be 158e c93d
00000340: d95c a23d 1556 52be c013 bb3c a6d1 863d
00000350: 8035 74bd 5764 93bb a80e 8c3d ed12 85bd
00000360: 8ae4 eb3d 6173 a23d eeb4 fa3d f8e2 023e
00000370: a8d1 a1bc a9fe f73d 063f 463d aded 1a3d
00000380: 5a7b 053e 03c7 1abd d0e9 7ebd 0441 f2bd
00000390: dcbb 90bd 3a29 9dbd 64a9 45bd 57bd 41bd
000003a0: 2531 6dbd 2682 cf3c fe79 d43d ddb2 873e
000003b0: 337f 583e aa59 2b3d a409 173e f7be 3e3e
000003c0: f98c 3bbe ba5f 043d 60a7 393e 407c 6fbe
000003d0: 13ee f5bd 5323 a3bb 7898 6dbe 0ef5 44be
000003e0: 780f 72bd b7cc 50be 3579 c8bd bdf6 d1bd
000003f0: 834b aabd 6f5d ddbd 1c5a 3dbe 4dc1 0fbb
-0.15422197 0.018418418 0.07520278 -0.124037765 -0.0640027 -0.011697075 -0.14937305 -0.05406239
0.08139598 0.098303586 -0.019709906 -0.027486274 0.0031032567 -0.021524696 -0.048386406 -0.010837475
-0.03548608 -0.13415097 0.068661734 -0.123853356 -0.20301192 0.09139386 -0.12354914 -0.16030012
0.11260441 -0.09992371 -0.14681302 -0.07190408 -0.094574414 -0.15932962 -0.18856613 -0.15364303
-0.10801643 -0.18818098 -0.19827153 -0.3163538 -0.03414298 0.03916335 0.033723053 -0.050037544
-0.09121161 -0.010654724 0.0014850155 -0.035155106 -0.100637004 -0.19261414 -0.07743169 0.06438791
-0.17410964 -0.13871102 -0.060630456 -0.051741924 0.0052864407 -0.0006039883 -0.11336329 -0.1137392
-0.047717586 -0.06861547 -0.036580443 -0.010886043 0.0024937727 0.013860808 -0.006614104 -0.0038194559
0.028141921 0.07900429 -0.106443465 -0.02208186 -0.037874814 -0.20111862 -0.06014981 -0.19248985
-0.14837554 -0.1313651 -0.025147483 -0.046800185 0.027042732 0.048787326 0.05195364 0.12716275
0.17511612 0.3067485 0.20325176 0.1319098 0.17985348 0.060192782 0.15137506 0.217034
0.120717146 0.16700958 -0.010359966 -0.014427807 0.09016081 -0.032134537 -0.035755847 -0.033373743
0.08992629 -0.0047337455 0.0127283875 0.12611988 0.04032499 -0.12121604 0.067954145 0.10529472
-0.11129634 -0.06664745 0.06938512 -0.006622278 0.1216792 0.029576989 0.14024714 0.027068703
-0.035603434 0.13736834 0.10163067 0.052379314 0.08593267 -0.1536749 -0.17892298 -0.060261413
-0.14015377 -0.2569088 -0.17792451 -0.15391597 -0.20130886 -0.21801247 0.020496206 0.16683711
0.3399411 -0.047537476 0.044470374 0.30277377 -0.15044658 -0.053724874 0.19371475 0.087524645
-0.05418991 -0.07252641 0.026708143 -0.07389596 -0.03582944 0.06573438 0.06107085 0.07051153
-0.0658794 -0.12135399 -0.22987574 -0.1615323 -0.10805006 -0.33622485 -0.11107266 -0.1415891
-0.4526139 -0.031521875 -0.12244152 -0.022579117 0.063766725 -0.03649298 0.084995985 0.06837784
-0.088927194 0.0060171816 0.2942727 0.19693103 0.19303122 0.23366229 0.12759103 0.2214609
0.29649937 0.19842112 0.17287889 -0.13760711 -0.10189675 -0.034370672 -0.12137361 -0.064888574
0.068283886 -0.155045 -0.10727675 0.076987006 0.40587398 0.33387873 0.0019250766 0.29957557
0.19063956 -0.039920133 0.2842711 0.2319604 -0.058991898 -0.02280982 0.088556364 0.14664285
0.03586495 0.08958677 0.20147118 0.042321503 0.067809604 0.120071456 0.08798452 -0.14675964
-0.38404924 0.17579237 -0.10547453 -0.4311076 0.22798747 -0.011644914 -0.32471114 0.09841553
0.079278655 -0.2054065 0.022836566 0.06582956 -0.059621334 -0.0044980454 0.06838733 -0.064977504
0.115182 0.07932163 0.12241541 0.12781894 -0.019753292 0.121091194 0.048399948 0.03782432
0.13035336 -0.03778745 -0.0622347 -0.11828807 -0.07067081 -0.07673879 -0.048257247 -0.04729971
-0.057908196 0.025330614 0.10374831 0.2650365 0.21142273 0.041833557 0.14749771 0.18627535
-0.18315496 0.032317854 0.18130255 -0.23387241 -0.120083 -0.004978576 -0.23202693 -0.19234106
-0.059096783 -0.20390593 -0.097887434 -0.1025214 -0.08315184 -0.10808837 -0.18491405 -0.0021935285

ConvBlock.2.conv_layer.bias f4 [32]
00000000: d74e d43d 1ff9 9d3d 2285 86bd 6b79 1abd
00000010: 254e ee3d 8318 213e fef0 673e 28c9 95bc
00000020: 9011 803e f773 803d 66ca f3bc e641 46bd
00000030: 7f9d cd3d 95be 9ebe e2e6 05bd 0a54 83be
00000040: 5030 babd 234b f9bc f7e2 863e e3d8 7d3d
00000050: ca2d 81bd 110e 613d 35e1 d0bd 8c09 ce3d
00000060: 7412 a3be 6b30 70be 6fc0 593c a386 73bd
00000070: b177 3f3b e131 20bd 75ca 0d3e bccb d33c
0.103666 0.07713532 -0.06568362 -0.03771345 0.11635999 0.15732007 0.22650525 -0.018284395
0.250134 0.062721185 -0.029759597 -0.04840269 0.100398056 -0.31004778 -0.03269089 -0.25650054
-0.09091246 -0.030431336 0.26345035 0.061974417 -0.06307562 0.054945055 -0.10199205 0.10060415
-0.31850016 -0.2345597 0.013290509 -0.05945457 0.0029215629 -0.03911007 0.13846762 0.025853984

ConvBlock.2.norm_layer.weight f4 [32]
00000000: 98ab 083f 46f7 fc3e 8dc1 ca3e 6bae 973e
00000010: ba88 e63e 58cf 933e 7f5a 533f 91b6 053f
00000020: 2f75 333e 3bb0 0c3f 6ecc 0d3f a431 1d3f
00000030: 7f85 103f a8ad 9d3e 9658 a33e 3445 103f
00000040: 2d6c 85be 994e 1c3f cf4e 003f c7fd 243f
00000050: 678e 403f 5f55 d93e d3dc 043f 7fdc 6a3f
00000060: 98a6 e23e 3b3c 023f 9c81 343e 90b0 633f
00000070: a43e 183f c3e9 e83e 11d7 0f3f 62aa aa3e
0.5338683 0.49407405 0.39600793 0.29625258 0.4502619 0.28869128 0.8255996 0.522317
0.1752517 0.54956406 0.5539006 0.6140387 0.564537 0.30796552 0.31903523 0.56355596
-0.26059094 0.6105743 0.5012025 0.64449733 0.7521729 0.42447945 0.5189945 0.917427
0.44267726 0.50873154 0.17627567 0.8894129 0.5947058 0.45490846 0.5618754 0.33333117

ConvBlock.2.norm_layer.bias f4 [32]
00000000: 2964 14be dbb2 22be b4a1 263e 7169 c53d
00000010: 7d2e 24be 3bd4 243e 5dfa 6f3c c2b3 50bc
00000020: a213 473f 88a5 073e f0f1 373d 5dff fb3c
00000030: 98f0 993c 9f49 32be b8fa a2bd 61f6 0f3e
00000040: a061 10be 4615 95be 6255 213e b992 c43b
00000050: 46dd 723c 61b6 f63d 439b 8bbc b54b c93d
00000060: 38f2 25be be4a 1dbd 9250 283f a20d 47bd
00000070: bb03 22bc 7193 8bbd 5e29 b0be a58a 00ba
-0.14491333 -0.1588854 0.16272622 0.09639252 -0.16033359 0.16096584 0.014647094 -0.01273817
0.7776433 0.13246739 0.044908464 0.030761415 0.018791482 -0.17410897 -0.07957977 0.1405883
-0.14099741 -0.29117793 0.15755227 0.005998936 0.0148232635 0.12046505 -0.017041808 0.09828893
-0.1620568 -0.038401358 0.6574794 -0.048596986 -0.009888585 -0.068152316 -0.3440656 -0.0004903472

ConvBlock.4.conv_layer.weight f4 [32, 32, 3, 3]
00000000: 8d41 d23d 9857 033d b401 42be 9c78 283e
00000010: c52c 223e c0ba 7cbe e491 613e 0221 fb3c
00000020: e18c 94be dde2 823e 1bc5 8e3e 824a 1d3e
00000030: 8f9e 733e 694c 443e 5b94 50be 7083 db3d
00000040: f0d1 09be 88c6 a2bd c3e0 0ebd 5582 943d
00000050: c504 87bc ef1b 9abd d179 ad3c 512e 093d
00000060: 875a 8abd 4dbb debd d6fb 41be 74b0 a0be
00000070: 81d1 9b3d 2bc2 96bd 6fe1 54be e232 903c
00000080: 8530 603d 0669 a9be 3780 17be df01 313e
00000090: 4439 953e 9415 713e 0eb6 7a3d 3a20 3c3e
000000a0: 1254 433e fa52 003d 4304 d03d 957c 08be
000000b0: b5f3 82be 13d7 e23c 3f32 d13d c440 a4bb
000000c0: 7eab 97bc b4f1 76bd 7d3a 52bd 752d efbd
000000d0: 5cfb 19be 9c30 e4bd 48c6 65bd 6e3d babd
000000e0: 79e1 85bd 1cd4 d1bc 4bab 81be d401 233d
000000f0: 5f40 34be f52e 08be fb6a f93d 9f8a 32be
00000100: ca49 39bd 1231 f23d ab6d 7e3e 418b 153e
00000110: 494b 48bd 4379 f9bd 0819 6c3e ffbe 23bd
00000120: 0d67 393d 4a96 063e 0c1f a83e f051 48be
00000130: 6d3c 96bc 9a80 9d3e 640c 41bd 445b f2bc
00000140: 7a37 673e 0cd9 0d3d 7693 863c c482 283e
00000150: 87fc 33bd 6e3e ce3d d14d c43d 8a00 a5bc
00000160: 3b56 55be cdcc ea3c c6ac 87bd 32e6 3a3d
00000170: 008d a23d b766 18be 2553 5c3e f76a e6bd
00000180: aade 12be 86ef ff3d 28b1 da3d c691 483e
00000190: 7d8e ab3c 8484 f1bd 38fc b13d 79e3 6cbd
000001a0: bc7a 17be b277 d13d bb7f 09be 5fdc c8bb
000001b0: 3cd4 6dbe 7cd2 18bd ad20 12bd 0bb6 d1bd
000001c0: 3993 fb3d 0874 993d 1fe3 41be 71e0 763e
000001d0: c48e 8d3c 3938 d83d 8248 75bd 9222 0a3e
000001e0: b2bf 0ebd a255 80be d633 24be 4960 53be
000001f0: 3911 0abf 3eaf 0abf fb57 0cbe 615e 83bd
00000200: 6cca 3fbb a731 ddbd 895a 7dbc 5cbc 85bc
00000210: 836b 35be 8451 8cbd 9f87 4ebe eaab 1ebe
00000220: 26ed 2bbe e7d9 48bd 695b 8ebd 310b e8bd
00000230: dbba b13d 6b4a 893c da5c 24bd 3f7b 0f3e
00000240: 73a5 3abe 3375 6fbd 1ef1 2cbe ef27 453e
00000250: 09a9 c03e ab9c 953e 457d 223e 16e1 af3d
00000260: ad0d 8a3e 1eb8 6a3d 8dbc 783c 8113 443e
00000270: 9ec2 40bd 6679 5e3d ac3a b9ba 5d0e a03d
00000280: 854b 033b 6e07 a8bd eca5 573e c47e c13d
00000290: 218c 0abc 228d 923e 5a06 163d 9fc5 ef3b
000002a0: a94b 203e 334b 093e 43c1 cbbc b51c 8c3d
000002b0: 27fa 3a3d 213b 0fbe 032c 82be d07c d2bc
000002c0: 44e9 523c e3df fcbd 6bc1 9d3d 2d5f 2ebe
000002d0: a1d8 aa3d 3e20 db3d 9a63 8f3d 98f2 6a3d
000002e0: 8d5d 173e 97de 003d f957 093e cdfe 853d
000002f0: 4a79 533e 21e5 893c b92f a83d a1f2 193e
00000300: f99e 77bd 4793 4fbc bd59 c33d d212 933d
00000310: 236b b93d cf5e 0c3e 4ba6 2abe fa61 bbbd
00000320: adee 113d 6cea 6dbd d7b4 5c3d e423 913d
00000330: d3c1 9b3c 9678 993d 8d9e 3e3e 646d 153e
00000340: eee4 1e3d 02fb e33d a721 cbbc 73ef 043e
00000350: 273d 7f3d 2d19 203e 1e16 203e c62c 1d3b
00000360: e9fe d2bd c1e6 22be fdb3 efbd 42ac b4be
00000370: ac32 8bbe e0dd ccbd 115b 07be c982 33be
00000380: 244c 533d db64 2e3d ff45 3c3e f96d 2d3e
00000390: d841 e4bd ef48 03bd e70c b93c cc18 53bd
000003a0: b890 ca3d 3dc3 9a3d 9b62 72be ecff 9dbe
000003b0: 63c9 d6be 3473 6bbe 5b74 91be 66bd 8bbe
000003c0: fedd d8bd 00a5 d2bd 64cf cfbd 3f24 a73c
000003d0: 0ca8 d53d e604 363e 2dbd f43d 5463 b73d
000003e0: 0096 143d 2f8b 2abe a2ae 42be b89d f1bd
000003f0: 68ec 983d c275 26be 6e3a 06be f41b 803d
0.10266409 0.032065958 -0.18945962 0.16452259 0.1583739 -0.24680614 0.22028309 0.030655388
-0.29013732 0.25563708 0.27884755 0.15360454 0.23790954 0.19169773 -0.20369093 0.10718429
-0.13458991 -0.07948023 -0.03488232 0.07251421 -0.016481766 -0.07524859 0.02117625 0.033491436
-0.06755548 -0.108755685 -0.18943724 -0.31384623 0.07608319 -0.07361253 -0.20789121 0.017602388
0.05473377 -0.3308794 -0.14795004 0.1728587 0.29145253 0.23543388 0.061208777 0.18371668
0.19075039 0.031329133 0.10157063 -0.13328774 -0.2557656 0.027690446 0.10214662 -0.0050126035
-0.018514391 -0.0602891 -0.05132531 -0.11678592 -0.15037292 -0.11142084 -0.0560973 -0.09093748
-0.06537146 -0.025613837 -0.25326 0.039796665 -0.1760268 -0.13299163 0.12178608 -0.17435692
-0.045236386 0.11825766 0.24846523 0.14603902 -0.048899923 -0.12181332 0.23056424 -0.03997707
0.045264293 0.13143268 0.32836187 -0.19562507 -0.01833936 0.30762178 -0.047130957 -0.029584534
0.22579756 0.03463082 0.016427737 0.16456133 -0.043942 0.10070501 0.09585155 -0.020141859
-0.20833676 0.02866211 -0.06624751 0.045629688 0.0793705 -0.14882933 0.21516092 -0.11250871
-0.14342752 0.12496857 0.10678321 0.19586858 0.020941967 -0.117928535 0.08690685 -0.057834122
-0.14792913 0.10227908 -0.13427632 -0.006129786 -0.23225492 -0.03731011 -0.035675693 -0.102398
0.1228394 0.07492834 -0.18934296 0.24109055 0.01727999 0.105575986 -0.059883602 0.1348975
-0.034850784 -0.25065333 -0.16035399 -0.20642199 -0.5393253 -0.5417365 -0.13705437 -0.06414486
-0.002926494 -0.10800486 -0.01546348 -0.016325168 -0.17716794 -0.06851485 -0.20168923 -0.15495268
-0.16789684 -0.049035933 -0.06951029 -0.113302596 0.08678218 0.016759118 -0.040127613 0.14011858
-0.18227176 -0.05846138 -0.16888854 0.19253515 0.37628964 0.2922109 0.15868099 0.085878536
0.2696356 0.057304494 0.015181673 0.19148065 -0.0470606 0.054314993 -0.0014131865 0.078152396
0.0020034027 -0.08204542 0.21059388 0.09448007 -0.008456261 0.286233 0.03662715 0.0073172594
0.15653862 0.13407592 -0.024872428 0.06841413 0.04564872 -0.139874 -0.25424203 -0.02569428
0.012872998 -0.123473905 0.07702907 -0.17028494 0.083421 0.10699509 0.07001419 0.05736026
0.1478178 0.03146228 0.13412465 0.0654274 0.20651737 0.01683289 0.082122274 0.15033962
-0.060454343 -0.012669391 0.095386006 0.07181324 0.09053638 0.13708042 -0.16664998 -0.09149547
0.03562801 -0.05808489 0.0538834 0.07086924 0.019013321 0.07493703 0.1861517 0.1459251
0.038792543 0.1113186 -0.02479632 0.12981968 0.06231418 0.15634604 0.15633437 0.0023982986
-0.103025265 -0.15908338 -0.11704252 -0.35287672 -0.27187097 -0.10003257 -0.13218333 -0.1753036
0.051586285 0.042576652 0.18386076 0.16936482 -0.11145371 -0.032051977 0.02258916 -0.05153732
0.09890884 0.0755677 -0.23670428 -0.30859315 -0.4195052 -0.22993165 -0.28409085 -0.27292937
-0.10589217 -0.102853775 -0.101469785 0.020403026 0.10432443 0.17775306 0.11950145 0.08954492
0.036275864 -0.16654657 -0.1901193 -0.117976606 0.07466966 -0.16255859 -0.13108227 0.06255332

ConvBlock.4.conv_layer.bias f4 [32]
00000000: a3ef 32ba e748 313e 4f0c 04be f62e 2a3e
00000010: 70d2 7f3d ad72 f23d cb0c 5ebe 5daa 6b3e
00000020: cf8e 7d3c 0420 52bd 95d9 2c3d 6058 b6ba
00000030: 5b75 04be d64b 1bbe 0eca 94bd 7c1d 663e
00000040: 8aef 8fbd 41ab 183d 4ea1 df3c c1eb 04be
00000050: 9697 90bd 9a48 613d 8d6f 6e3d 40e2 4b3d
00000060: 92e3 593d bd96 3b3d df2a 843e 53c8 18be
00000070: 0834 53bd cd9b efbd 42f1 61bd 2c37 193e
-0.000682587 0.17312966 -0.1289532 0.16619477 0.06245655 0.11838279 -0.21684568 0.23014207
0.015475943 -0.051300064 0.04219969 -0.0013911836 -0.12935393 -0.15165648 -0.072651014 0.22472185
-0.0702811 0.037272695 0.027298596 -0.12980558 -0.07060163 0.05500088 0.058211852 0.049776316
0.053195544 0.045798052 0.25813958 -0.14920168 -0.051563293 -0.116996385 -0.055161722 0.14962453

ConvBlock.4.norm_layer.weight f4 [32]
00000000: 192e 683e 2d33 7b3e 8ffd 0b3f 541b dd3e
00000010: c4c4 773e d461 973e 252d 133f b27f b73e
00000020: a79f e33e 1486 a73e a934 fa3e 64fe 9c3e
00000030: f6ed aa3e 24f9 8b3e 9206 803e edbb ca3e
00000040: 749c 803e e997 c53e a7cb 6a3e 3c58 5f3e
00000050: a9ce 833e ce24 9f3e 7fe1 7c3e 960c 133e
00000060: 8408 003f d236 f13e 5946 023f fa72 a53e
00000070: 90ac 093f 2ae4 8f3e 2828 833e 1331 023f
0.22673835 0.24531241 0.54683775 0.43184912 0.24196154 0.29566824 0.5749076 0.3583961
0.44457743 0.3271948 0.48868302 0.30662835 0.33384675 0.27338517 0.25005013 0.395965
0.25119364 0.3859246 0.2292925 0.21811002 0.25743607 0.31082767 0.24695395 0.1436027
0.50012994 0.47112137 0.5088859 0.32314283 0.53778934 0.28103763 0.25616574 0.5085613

ConvBlock.4.norm_layer.bias f4 [32]
00000000: 545d 1f3f 652a fe3e 2f21 2b3f 3f7a 043f
00000010: 6e7a 113e 838e b93e aac2 00bf 2229 f53e
00000020: 8e5b 3e3f a1f7 1f3f f5fb 863f 3401 0b3e
00000030: 95d7 a9bd dd50 123e e260 1cbd 0ca2 093f
00000040: 85ff 243f f6a2 02bd 20ad 5a3e 6e17 da3d
00000050: 601a 6fbb 0fdb 7c3e 1562 963e 524a e63c
00000060: 9fa5 fa3e 02d4 193f 4b27 18be ab51 053e
00000070: ca62 43be e6da 193d 6c9e 16bd c670 fdbc
0.6225178 0.4964172 0.6684751 0.5174903 0.1420686 0.3624154 -0.50297034 0.47882944
0.7435845 0.62487227 1.0545641 0.13574678 -0.08293072 0.1428866 -0.038178332 0.5376289
0.6445239 -0.031893693 0.21355104 0.10649 -0.0036484227 0.24692939 0.29371706 0.02811161
0.48954484 0.60089123 -0.14858739 0.13019435 -0.19080654 0.037562273 -0.036772177 -0.030937564

ResidualBlock.0.conv1.conv_layer.weight f4 [16, 32, 1, 1]
00000000: d705 cdbc 7bb8 603d 74e1 54bd 7f95 6e3e
00000010: 6385 0fbe 4a22 fabd bc42 16be be5f 78bd
00000020: 7b2e 55bd 71f7 66bd caff 013d 323a 783e
00000030: d1e8 373d 801d a7be 1d13 17be ba6f 943e
00000040: 9915 823e 170f df3d 6c3a 61be 8407 8c3e
00000050: 223a 633d 2518 20be 2417 bebc 6417 943e
00000060: 7359 3bbe 0ba2 463b 632d 96bd 652a 173e
00000070: e6c8 85be 20d9 633e ac17 febd 84ae 85bd
00000080: 0e7c fdbd 341a e7be 07d6 213d e582 e6bd
00000090: 7a8d 1f3e e914 0ebe b4e5 5fbe f2da c3bb
000000a0: 816c a13c 619a 7fbe b4c4 563d d949 99be
000000b0: b8f6 5a3e 582e d4bc 13d3 0a3d 32c4 533e
000000c0: 0e10 06bc b37b 983e 0815 5ebe 65d9 20be
000000d0: 8e9e 403e 4f99 3b3e 2efd 203e 98a3 4c3e
000000e0: 07b2 713e ffd2 f03b a285 dd3d 0f6f 11be
000000f0: d9f7 70be cf42 0bbe 13f0 7a3e a0b1 8c3c
00000100: 4090 3e3e 91f7 5ebe 81c7 9b3d 83eb 7bbc
00000110: cf3e 02bb f86a bbbd 7de1 44be c6ef 98bd
00000120: a434 c03c dc34 e03d 00ee 93bd 5e5b 953d
00000130: fb36 8f3d bd74 ed3c af61 99bc a10c 023e
00000140: b854 e4bd fac7 403e ccbb 3bbe a808 963d
00000150: 3d36 193f 9692 79be 66b2 b73e 5899 37be
00000160: 7411 e8bd 9b9f a73c a402 783e d25b d5bd
00000170: 52d7 69bd 14bd e4ba 4ea6 59bd a9a4 3dbe
00000180: ce38 043e 4e57 733e f533 ebbc 2f71 243d
00000190: 5105 07be bef4 983c 6443 e13c 8958 e1bd
000001a0: e37c 9c3c e9a8 953b 1f78 b0bc 49d3 943d
000001b0: a323 053f a39e 963e 083f 42bd 6878 2fbe
000001c0: 138c 0b3c 1777 b13d 9604 01be 7014 853e
000001d0: e69a ff3d 7532 833e 4bd2 0c3e f161 953e
000001e0: c283 88bc e71f 5fbc 9557 07be 01bf 053e
000001f0: f659 2fbe c3c9 b73e faf5 a33d 162c 40be
00000200: f77e 903c 9c3a 0dbe e01d b0bc 1f4c 4dbd
00000210: 033f 593c e86a 6dbd 69de 79bd 51de 92bd
00000220: a145 74bd 1a28 fe3d d8dc e8bd 15e2 61be
00000230: 9669 313e 6521 20bd 3628 07be eb0e d43d
00000240: c2f9 b83d 67b8 08bf 5849 3bbd 36dd 4fbd
00000250: 8008 21be 8271 bdbb 95e7 a33d 7c49 1ebc
00000260: f046 bbbc b6af a8bd fb4b c0bb 4f27 74be
00000270: f373 303e a9e2 38be fa86 0e3f 3571 20bf
00000280: 7ed7 65be cdbd 8ebe 7976 bc3b 0b9f 6abd
00000290: 2a7c 9bbc 179b 75bc 8453 dfbd 1c08 273d
000002a0: c39e e0bd a611 253e 35a6 04be eaa4 f9bd
000002b0: 21e6 99be e97e cf3d 1acb e9bd f960 12be
000002c0: cd65 9a3d a177 97be 31da e73c 44a8 843e
000002d0: cccf 9f3e bddd 4f3d 3ee2 0cbe c677 ed3d
000002e0: 8124 35be db34 78bd 345e 9d3e 3565 c2bd
000002f0: 06ac afbe 773e b73d 68e8 96be 7515 e3bd
00000300: 26a1 2d3e 1128 913d 3e87 c2bd 6064 56be
00000310: 15c3 b6bc 3999 163e 086a b4bd 2611 9a3d
00000320: e448 f1bb a1ae 9cbd 238c 0d3e 5c2c 333d
00000330: e67b b63e 0b0e 98bd 06df 13be 6b09 7bbe
00000340: 878c 2c3e 1205 353d e322 19be f51a 193e
00000350: e10a 40bd 719d e3be 17fe c23d cc8d 88bd
00000360: 8179 27be 9812 b83d 0cf2 993e 9b84 9fbe
00000370: 3c64 773e 2e4b eebd 1506 c8bd 782e 29be
00000380: cfd0 11be 6a95 e6bc 6180 8a3c 03a1 00bb
00000390: 4dd9 9ebe 6253 3e3d ace4 6dbe bf2a 0f3c
000003a0: f7b4 fdbb 4a95 21bc 4f0a 943d 7274 50be
000003b0: 3b2a 85be 4161 3cbd 56a1 b8bc de70 3abb
000003c0: 01de 163d 5845 1abf 243a 15be 93cb 1fbd
000003d0: 3ef3 85bd 5767 a1bd be83 0f3e 0550 663e
000003e0: 48e5 c3bd 9786 03bb 413c 903d 308c a23e
000003f0: 29c2 ac3c bc7e 52be 1b52 ba3e d3f9 00bf
-0.025027199 0.054863434 -0.05197282 0.23299216 -0.14015727 -0.12213571 -0.14673895 -0.060638182
-0.05204628 -0.056388322 0.03173808 0.2424095 0.044899765 -0.32639694 -0.14753385 0.2899149
0.25407103 0.1089155 -0.21994942 0.27349484 0.05547536 -0.1563421 -0.023204394 0.28924096
-0.18295841 0.0030308987 -0.073328756 0.14762266 -0.26129836 0.22250795 -0.12406859 -0.06527427
-0.12377177 -0.4513718 0.039510753 -0.11255435 0.15581313 -0.13875164 -0.21864969 -0.005977028
0.019705059 -0.24961235 0.052433684 -0.29939154 0.21383178 -0.025901005 0.033892702 0.20680311
-0.008182539 0.29781875 -0.2168771 -0.1570793 0.18810484 0.18320201 0.1572158 0.19984281
0.23603068 0.0073493714 0.10816504 -0.14202522 -0.23532046 -0.13599704 0.24505644 0.017174542
0.18609715 -0.21774127 0.07606412 -0.015375975 -0.0019873863 -0.09151262 -0.19226642 -0.07467608
0.023462601 0.10947582 -0.07223129 0.072928175 0.069929086 0.02898633 -0.018723337 0.1270013
-0.11148971 0.18826285 -0.18333358 0.0732587 0.59848386 -0.24372324 0.35878295 -0.1792959
-0.11331454 0.020461848 0.24219757 -0.10417904 -0.05709011 -0.0017451369 -0.053137116 -0.18519844
0.12912294 0.23763773 -0.028711298 0.040147003 -0.13185622 0.01867139 0.027497955 -0.11003215
0.01910252 0.004567255 -0.021541653 0.07266862 0.520075 0.29417905 -0.047423393 -0.17135775
0.008517283 0.08665293 -0.12599406 0.25992155 0.124807164 0.25624433 0.13752095 0.29176286
-0.01666439 -0.013618446 -0.13217004 0.13061143 -0.17124161 0.3589612 0.08005901 -0.18766817
0.017638667 -0.13791889 -0.02149862 -0.050121423 0.013259652 -0.057963282 -0.061003122 -0.0717131
-0.059636716 0.124099925 -0.113702476 -0.220589 0.17325434 -0.039094348 -0.13198933 0.10354408
0.090320125 -0.53406376 -0.045724243 -0.050748073 -0.15725899 -0.0057813535 0.08003155 -0.009661075
-0.022860974 -0.08236639 -0.0058684326 -0.2384312 0.17231731 -0.18055214 0.5567471 -0.6267274
-0.22445485 -0.27879182 0.0057514277 -0.05728058 -0.018980104 -0.01499059 -0.10904601 0.040779218
-0.109677814 0.16120014 -0.12954028 -0.12189658 -0.30058387 0.10131628 -0.11415692 -0.14294805
0.07538948 -0.29583457 0.028302284 0.25909626 0.31213224 0.050748575 -0.1375818 0.115951106
-0.17689706 -0.060597282 0.30735934 -0.0949196 -0.3431093 0.08947461 -0.29474187 -0.11088077
0.16956005 0.0708772 -0.09498452 -0.20936728 -0.02230982 0.14706887 -0.08809286 0.07522802
-0.0073634256 -0.07650495 0.13822989 0.043743476 0.35641402 -0.074245535 -0.14440545 -0.24515311
0.16850482 0.04419429 -0.14954714 0.1495169 -0.046885375 -0.44456056 0.0952112 -0.066676706
-0.16354944 0.089879215 0.3006748 -0.31155857 0.2415933 -0.11635433 -0.09766785 -0.16521633
-0.1423981 -0.028147418 0.016906919 -0.001962722 -0.31025162 0.04646624 -0.23231763 0.008738219
-0.00774252 -0.009862253 0.07228529 -0.2035692 -0.26008782 -0.045991186 -0.022537868 -0.0028448622
0.036832813 -0.6026206 -0.1457296 -0.039012503 -0.065405354 -0.07881039 0.140151 0.22491463
-0.09565216 -0.0020069235 0.070427425 0.3174758 0.021088677 -0.20556158 0.36390767 -0.503812

ResidualBlock.0.conv1.conv_layer.bias f4 [16]
00000000: 3173 f13d 000b 88bd 420c 893d a3bd cdbd
00000010: 60cb 293e fe76 86be 5b2e 013e 64ff 063e
00000020: 164c e8ba ef5d 9cbe 9aff acbd 9925 423e
00000030: 3eeb e1bd 71a7 cebd 4850 d63e 45f5 f5bd
0.11789549 -0.06642723 0.06691791 -0.10045936 0.16581488 -0.2626266 0.1261534 0.13183361
-0.0017722871 -0.30540416 -0.0844719 0.18959655 -0.11031197 -0.10090531 0.41858125 -0.12009672

ResidualBlock.0.conv1.norm_layer.weight f4 [16]
00000000: a1ac 933e 2445 e03e 39d7 c13e ccfa 823e
00000010: ddc9 0b3f 364c 003f 4ac6 2b3f 0f8a 603f
00000020: d666 093f d465 1b3f afe1 843e 588a 673e
00000030: b3e0 0c3f 3228 3a3f 4276 053f 0b92 bd3e
0.28842643 0.4380275 0.37859514 0.25581968 0.54604894 0.5011629 0.6709944 0.8771066
0.5367254 0.6070225 0.25953433 0.22611368 0.55030364 0.72717583 0.5213357 0.37025484

ResidualBlock.0.conv1.norm_layer.bias f4 [16]
00000000: 2186 043f 0e2c 783e ff4e 953e 9912 033e
00000010: 3625 313e a215 26be b095 b23d 4173 8fbd
00000020: 0884 ef3d 9a8d 14bd d472 563e db8d 023f
00000030: 2e9e b4bc b53a 8f3d 3dd2 9dbe 6005 09be
0.51767164 0.24235556 0.29161832 0.12800063 0.17299351 -0.1621919 0.08719957 -0.07004405
0.11695105 -0.036267854 0.20942241 0.50997704 -0.022048082 0.06993619 -0.30824462 -0.13380957

ResidualBlock.0.conv2.conv_layer.weight f4 [16, 16, 3, 3]
00000000: f35d dfbd 2f17 29bd 4dd5 c73e 570b 853e
00000010: 7da9 043e 78d8 73be 72c7 eb3d f422 e03d
00000020: 28a2 8e3d 74dd 16bc 4558 28bd b22d a13d
00000030: 5f68 283d f98d cc3d dea7 6cbd 13be 2fbc
00000040: 2cee 26be fadd 243d 6099 3dbc 6fb7 bbbd
00000050: d871 82bd 07c0 5f3e 72cf 623d 3775 1ebe
00000060: 1205 ffbc 71cf 3ebe c3aa b33d afb2 d03d
00000070: 9802 f5bd 661d 8abc 6c72 b3bd 3a33 933d
00000080: a946 063e e10a 25be 3c14 cd3d 8808 493d
00000090: 805f fbbd b77e 07be 1d0a 1bbe 81d2 42be
000000a0: e9f2 fb3c 09e6 7c3d 0e2f c43d c7d2 273e
000000b0: 584c cebc 1606 d43d e34b 86bd 4ffc 7fbd
000000c0: 91bd 70bd 5998 753d f5a7 89bd 09c6 e2bd
000000d0: f9c6 91bd 2abc 9b3c 0d42 feba aa83 82bc
000000e0: d528 af3d dcdc 81be f313 353e 7461 2c3e
000000f0: a0af 803e 9881 d83d 1134 f0bd b043 583e
00000100: 86d8 653d 4de5 10be 43ef 29be 4fd1 f5bd
00000110: b865 0e3d bf98 4dbe 4f5c 13bc 1364 c83c
00000120: ab4f 553e c0b6 6bbc 0985 74be 31bc 50be
00000130: 51fe 35be 451e 0c3c 4549 83be 451b e63d
00000140: 07b4 a73c 197e 55bd ccd6 c9bd b486 063e
00000150: 9cfa 3bbe 46d0 163e adad 653d bd01 673e
00000160: 32d9 48be ef6d ccbd fc8b 5ebd eca1 a9bc
00000170: 7e37 f83c e6b8 a5bd e48d 60bd 2a23 c33a
00000180: 468d 143e 7972 84bc b1e2 483c 0f13 f43d
00000190: 4570 ca3e 1c72 c83d 7e1f 353c 3e58 133e
000001a0: 616a 2ebe a6a5 573e d824 443c 4891 89bd
000001b0: 8ef9 4bbe a9f2 fbbd 261a 433e f839 a13c
000001c0: 532b 103d cd05 a83b 4cd2 863e 3ba3 31be
000001d0: 7d78 84bd 6822 f83d a237 8e3d 8a31 81be
000001e0: 1568 71be eae7 7bbe 3955 7c3b ccc7 ecbd
000001f0: eb37 033e 81b2 373d 5b07 273e 8ff7 423d
00000200: e7a1 b3bd 9d3f 74be 1976 efbd 9413 4bbe
00000210: 4381 5abe f5a6 17be 3453 143b 521f c43a
00000220: 864f d8bd f73a 07be c061 ecbb b90b 443d
00000230: ff79 593d 90c0 3a3d bfa6 c8bd f138 1dbe
00000240: 4d0a 7d3e 305c 403c 231b 32be 6e3b 88bd
00000250: fe93 fabd 4ded 22ba c5e1 db3d 7a0f 39be
00000260: 4118 553e 727c eebc fbc9 1abd f492 9abe
00000270: 1a62 383c e968 113d 82f2 503d 5990 98bd
00000280: c5fc 24bd 2c66 d83d 04b1 573d 09ca cf3d
00000290: c251 093d 4993 0bbe f068 94bd 7e3e 203c
000002a0: bb3f 8d3c 07d8 57bd 4348 903d 1c53 eabd
000002b0: 928d f9bd f464 8cbe 25d1 81bc f4db cfbd
000002c0: 5a9a ffbd 7b33 183d 9970 09bd 8756 80be
000002d0: a6b2 bcbd bb90 923d 9393 863c 8315 c7bd
000002e0: 00c4 283b 879e c43d c2e8 37bd 2849 d43d
000002f0: 2be5 d8bc 46e1 47be 2eac 80bd a818 053c
00000300: e48e bbbc 6f3e aaba f98f a8bd f08a 2b3e
00000310: fa0c f6bc 35b6 f6bc 6e15 59be b662 39bc
00000320: afe5 4abd e184 a13d c607 a43e 25f7 fe3c
00000330: f7fa 4e3e 9057 a8bb 8c7d 003c d71c b8bd
00000340: c144 15be c0a4 38bd c7cb 0b3c cf0d fb3d
00000350: 000f 86bd 35e2 f13d eefe 80bc 5efd 1cbd
00000360: 63bb f03d 8658 80be 9577 4fbd 8a4b b73d
00000370: add7 70bd 7d4e a83d 68c7 b13e 0012 473e
00000380: 2e2e bd3d 5e83 8cbd 0ad4 7b3d a6b6 1abd
00000390: 8ede 903b 9b98 3e3e e5e5 9e3d de4a a4bd
000003a0: 7000 b2bd fbf8 993d d000 adbd 3710 e43d
000003b0: 522c 32be cae1 0fbe 27db ca3e 2bd3 0c3e
000003c0: 41a3 46be 050e 08be 6c54 74bc 9f40 b13e
000003d0: 1f56 5c3e df4d 11be 2d71 aa3d 929b 0e3e
000003e0: 1b05 44be 850a c33e fe68 333e 3d56 dabd
000003f0: 8cc4 f5bd 56c1 863d 64e9 38bc f431 193e
-0.10906591 -0.041281875 0.39029923 0.25985214 0.1295528 -0.23813045 0.115126505 0.10944167
0.069645226 -0.009208072 -0.041099805 0.07870044 0.04111516 0.09988017 -0.057777278 -0.01072647
-0.16301793 0.040250756 -0.011572212 -0.091658466 -0.0636937 0.21850596 0.055373617 -0.15474401
-0.031130347 -0.1863382 0.087728046 0.10190331 -0.11963385 -0.016859721 -0.087620586 0.07187505
0.13112892 -0.16117431 0.10013625 0.0490804 -0.122740746 -0.13231932 -0.15140577 -0.19025613
0.030755477 0.061742816 0.095792875 0.16388999 -0.025182888 0.10352723 -0.06557443 -0.06249648
-0.058774535 0.059959743 -0.067214884 -0.110729285 -0.07118029 0.019010622 -0.0019398347 -0.015931923
0.0855271 -0.25363815 0.17683391 0.1683405 0.2513399 0.10571593 -0.11728681 0.2111957
0.056114696 -0.14149971 -0.16595177 -0.12002813 0.034764975 -0.200778 -0.008994176 0.024461782
0.20831172 -0.014386833 -0.23878874 -0.2038429 -0.17772795 0.008552139 -0.25641838 0.1123567
0.020471586 -0.05212221 -0.098554224 0.13137323 -0.18357319 0.14727888 0.056073833 0.22559257
-0.19614103 -0.09981906 -0.05433272 -0.020707093 0.030299898 -0.08091907 -0.054822817 0.0014887799
0.14507017 -0.016167866 0.012261079 0.11917698 0.3953878 0.0978739 0.011054872 0.1438913
-0.17032768 0.21059284 0.011971675 -0.06717163 -0.19919416 -0.12302143 0.19052944 0.019680962
0.035197567 0.0051276446 0.2633232 -0.17347424 -0.06468294 0.121159375 0.06944205 -0.25233108
-0.2357486 -0.24600187 0.0038502945 -0.11561546 0.128143 0.04484797 0.163114 0.04759937
-0.08771115 -0.23852392 -0.11692447 -0.19831687 -0.21338372 -0.14809783 0.00226326 0.0014962947
-0.10562043 -0.13206087 -0.007213801 0.047862742 0.05309486 0.0455938 -0.09797429 -0.15353753
0.2471096 0.011740729 -0.17393164 -0.0665196 -0.122352585 -0.000621517 0.107364215 -0.1807231
0.20810033 -0.029112075 -0.03779028 -0.3019024 0.011253858 0.03550044 0.051012523 -0.07449407
-0.040280122 0.10566363 0.05265905 0.10145957 0.033525236 -0.13630404 -0.07246578 0.009780524
0.017242303 -0.052696254 0.07045033 -0.11441633 -0.121852055 -0.2742077 -0.015846798 -0.101493746
-0.12480612 0.03715847 -0.033554647 -0.25066015 -0.09213762 0.071565114 0.01642779 -0.097209
0.002575159 0.09600549 -0.04489971 0.10365516 -0.026476463 -0.19519529 -0.06282841 0.008123554
-0.022895284 -0.0012988577 -0.082305856 0.16752219 -0.030035485 -0.03011618 -0.21199581 -0.011315038
-0.04953545 0.07886673 0.3203718 0.031123707 0.20212923 -0.0051373914 0.007842433 -0.08989876
-0.14577009 -0.045078993 0.008532471 0.12258493 -0.0654583 0.11810724 -0.01574656 -0.038327567
0.11754491 -0.25067538 -0.05065115 0.08949955 -0.058799434 0.082180955 0.34722447 0.1944046
0.09237324 -0.06860994 0.061481513 -0.037771843 0.004421062 0.18612902 0.07758693 -0.08022092
-0.0869149 0.075181924 -0.084474206 0.11135905 -0.1739972 -0.14050975 0.39620325 0.13752429
-0.19398214 -0.13286598 -0.014912706 0.34619614 0.21517228 -0.14189862 0.08322368 0.13926533
-0.19142573 0.38093963 0.1752052 -0.1066098 -0.12000379 0.06579845 -0.011286113 0.14960462

ResidualBlock.0.conv2.conv_layer.bias f4 [16]
00000000: 0dbb 5c3d c521 ad3c c474 b63d 53c6 58be
00000010: c2b7 c73c 268c ae3d 253c 943e e1a0 2cbc
00000020: adaf 093e c101 533d b0fd 1ebe 4b00 063b
00000030: e662 833d 0ab0 013e a4de 3c3e 42d1 4a3e
0.053889323 0.021134267 0.0890899 -0.21169405 0.024379615 0.08522825 0.28952137 -0.010536403
0.13445921 0.051515345 -0.15526462 0.0020446952 0.06415348 0.1266481 0.18444306 0.19806388

ResidualBlock.0.conv2.norm_layer.weight f4 [16]
00000000: 6f3f 273f f3ac 003f 2b56 353f 559a c03e
00000010: 1260 2c3f d26e c93e 3599 0e3f f76a 433f
00000020: 4fc0 423f 7824 243f 48c9 213f 2591 173f
00000030: d97c 1d3f abd1 243f ebfb 963e 7ec2 ad3e
0.65331167 0.502639 0.70834607 0.37617746 0.6733409 0.39342362 0.55702525 0.7633509
0.7607469 0.64118147 0.63197756 0.5920585 0.6151863 0.6438243 0.29489073 0.33937448

ResidualBlock.0.conv2.norm_layer.bias f4 [16]
00000000: e207 0fbc a980 e93e 0aba 85be 211d 88be
00000010: 3c4e 1a3f 66ba 313f dc0b e33e 0a3d b7be
00000020: fd9a cc3e cc83 a23e ffe9 8cbe 3acb ee3e
00000030: d4ea b7ba 8167 083c f638 8b3c 56fb 913e
-0.008729907 0.45605972 -0.261185 -0.26584724 0.60275626 0.69425046 0.44344985 -0.35788757
0.39961997 0.31741178 -0.27522275 0.46639425 -0.0014031776 0.0083254585 0.016994935 0.28512067

ResidualBlock.0.conv3.conv_layer.weight f4 [32, 16, 1, 1]
00000000: a942 1dbe 46d6 ff3d a8a2 02bf d6f4 98be
00000010: 462c 83be 898c 3fbe a1ea febd 6816 bdbd
00000020: 2824 22bd 180e 52bd dd2c 26be c017 50bc
00000030: d7f5 96be fb1e e0bd 84b3 82bd 8200 0b3e
00000040: 1d84 08be 4839 1dbe fa0b ccbd 7022 aa3e
00000050: 3d50 cbbd efef a03d e488 343e 6116 8b3e
00000060: 822d 76bd bd66 9bbc edb6 d4be 1753 a7bd
00000070: 7364 e9bd b9fb 303e 38f1 1e3e 3e6d 77be
00000080: 86da dd3b 7656 a0be 7692 b7bd 4b75 74be
00000090: 2de3 803c 54bd 743e fb4c 1e3c ad0e 82be
000000a0: a844 093a 9bd7 a33d 81a6 96be 1785 c43d
000000b0: 0b3f 523d 1a4a 3b3e e54c f23d b69f debe
000000c0: ecf0 6abe fca8 bfbd 90e0 b5bd 3b02 1a3f
000000d0: b0df 893e 6589 1dbd e346 ddbb a3eb f93d
000000e0: 5a14 d03c f636 783d 1024 4cbe 942c 253e
000000f0: f676 6bbd df1c a5bd 3ad1 c43e d193 41be
00000100: 5251 663d 8f74 853d 91c7 0b3e c343 4b3e
00000110: a186 e0bd 945d 93bc 629f a63e 3f32 0c3c
00000120: e599 f2bd 2cc7 d13d f231 69be 0d53 b73d
00000130: d89f 41be 48e2 883e 2e3a f5be 6846 5c3e
00000140: 1b00 a5bd 01a5 273e 1cb8 a1bd 76e6 983d
00000150: 0804 153e bc66 98be 1fa1 103c b63a 4abe
00000160: 435b 893d a8ad e33c 358a 32bf 9fa4 543e
00000170: 5651 83be 2ea6 ac3d 8e98 743d cf1e 183e
00000180: 83c6 173e c6d0 85be bd9d 753d 0e87 8ebe
00000190: 7a8f ad3d 0fbb e6bd d240 6d3e 0aed 793d
000001a0: 9341 50be 9ea1 c9be b6af 043e 35b5 4fbe
000001b0: b390 0f3d ae8f 86be bcd2 96be 5cb8 9b3e
000001c0: 651c b63c 1e02 3cbe d87c 7bbe d40e afbe
000001d0: 845b 1b3e 1605 4dbe 5ccb 2fbe bae0 063d
000001e0: bf5e 573e cf9d 00be 3c31 a0bd 4898 c43d
000001f0: 220d 243e 945e 0ebe 1553 e63c 4a7c 743e
00000200: 7930 7dbe ba0b 88bd 3499 6abc 25f1 83bd
00000210: b1cb e73d 2144 f0be 9552 4d3e 2fee 983e
00000220: 2611 443e 8084 c6bd 2b2f e2bc a0fb 11be
00000230: bebb 12be 18eb 133e 935d 5fbd ad2f 8abe
00000240: 39df 85be 6482 593d 62b0 583b d7ab 5c3e
00000250: c341 a0be 664d 5fbe 7c00 f83b 6f80 5e3d
00000260: 90cf 1cbe 523e 08be d0ff 95be 4b1f 8a38
00000270: a00b edbd cea6 a93d 2e52 363d 8190 033e
00000280: 8bcd 5cbe 742a d5be f2e1 3b3c af20 95be
00000290: bb32 993e f2e1 73be 33ce b73d 8db5 01bd
000002a0: ed67 4a3e d541 f1bd ee56 28bd db31 63bd
000002b0: cddd d7bd e255 283d 7a2e 3dbe c905 97be
000002c0: cc8d 4d3e 39bc 853e 6c1c a33c 7149 fd3c
000002d0: 0865 893e dc11 c4bd 3878 b83d 69bf 34bd
000002e0: a114 e03e 0e6f c1bd 6923 693d ef6a a93a
000002f0: 265e f83d 4009 093f fe65 de3d e198 a9bc
00000300: 5e91 21be aa74 d0bd 09c6 92bc e27f a7be
00000310: f250 c73e c938 fd3d a3f0 30bb 8096 66bc
00000320: 4386 073f 4a0a d63c cb33 6fbb 8254 c83d
00000330: 520c 40bd 9aa7 6c3d 945b f83d 3551 073e
00000340: 3299 fb3d 061e 6f3d e94f 863e 2c5d ebbe
00000350: d821 323d c383 1a3e 36f7 59be a53f 363e
00000360: 4280 41bc 2b0b 7ebc cbb7 4fbe 9d62 5abe
00000370: cfc7 2c3d 6832 5ebc 6056 863e 4ba2 c43e
00000380: 269e 3ebd c93d 903c 8a6d 80be 192e e8be
00000390: ad22 c8be 0f59 64be 8b5a 03bb 83ff 16be
000003a0: 2bd7 afbe ec17 cc3d e02d d73d 660e 56bd
000003b0: 1fa3 50be 4829 6d3d 17b7 a5bc 6282 3f3e
000003c0: 049b 08bd 36f9 f2bd caa2 2ebd 17cd 563e
000003d0: f7d8 633e 70f7 7fbd edab dfbe 6698 34be
000003e0: f379 483e 0949 11be 92d5 c2bd ceb6 4a3d
000003f0: 6e8d 05be e868 3b3e 2f4a 503e fdd6 d8bd
-0.1535746 0.12492041 -0.51029444 -0.29874295 -0.25619715 -0.18705954 -0.12447096 -0.09232789
-0.039585263 -0.051282972 -0.16228051 -0.012700975 -0.29484436 -0.10943409 -0.06381896 0.13574412
-0.13331647 -0.15353882 -0.09963222 0.332294 -0.099274136 0.07858264 0.17630345 0.2716551
-0.060101993 -0.018969888 -0.4154581 -0.08170145 -0.11396112 0.17283525 0.15521705 -0.24162766
0.006770435 -0.31315964 -0.08963482 -0.23872869 0.015733326 0.23900348 0.009661908 -0.25401822
0.0005236366 0.08000108 -0.29423907 0.095956974 0.051329654 0.18289986 0.11831073 -0.43481225
-0.22943467 -0.09358403 -0.088807225 0.60159653 0.26928473 -0.038461108 -0.006752835 0.12203147
0.02540033 0.06059929 -0.19935632 0.16130286 -0.057486497 -0.08062147 0.38440877 -0.18904044
0.056229897 0.065163724 0.13650347 0.19850068 -0.109631784 -0.017988957 0.32543474 0.0085569015
-0.11845759 0.10243067 -0.22772959 0.089513876 -0.18908632 0.2673514 -0.4789595 0.21511233
-0.08056661 0.16371538 -0.07896444 0.07465832 0.14552319 -0.2976588 0.008827477 -0.19748959
0.0670686 0.027792767 -0.6974214 0.20765923 -0.25647992 0.08430134 0.0597158 0.14855503
0.1482182 -0.26135844 0.059964884 -0.27837414 0.084746316 -0.11266147 0.23169258 0.061017074
-0.20337515 -0.39381117 0.12957653 -0.20283969 0.035050105 -0.26281494 -0.29457653 0.30414093
0.022230336 -0.18360183 -0.24559343 -0.34191 0.15171629 -0.20021471 -0.17167419 0.03292916
0.21032237 -0.12560199 -0.07821891 0.09599358 0.16020635 -0.13903266 0.028115788 0.23875538
-0.24725522 -0.06642862 -0.014318753 -0.06442479 0.11318148 -0.46926978 0.20051034 0.2986922
0.19147167 -0.09693241 -0.027610382 -0.14256144 -0.1432943 0.1444515 -0.0545326 -0.269895
-0.26146868 0.053102866 0.0033064117 0.21549927 -0.31300172 -0.21806869 0.007568417 0.054321703
-0.15313554 -0.13305023 -0.29296732 6.5861816e-05 -0.11574483 0.082837686 0.044511966 0.12848093
-0.21562783 -0.41633952 0.011467444 -0.29126498 0.29921517 -0.2381666 0.08974876 -0.03166728
0.19766207 -0.117801346 -0.041098528 -0.055467468 -0.10540352 0.04109753 -0.1847476 -0.294966
0.20073622 0.26120165 0.019911014 0.030918809 0.26834893 -0.09573719 0.09007305 -0.044127855
0.4376574 -0.0944501 0.056918535 0.0012925545 0.121273324 0.5352974 0.10859297 -0.020702781
-0.1577811 -0.10178502 -0.017916696 -0.32714754 0.38928944 0.123643465 -0.00269989 -0.014073968
0.5293924 0.026127953 -0.0036499377 0.097817436 -0.04688675 0.057777025 0.12126842 0.13214572
0.12285079 0.058378242 0.26232842 -0.45969522 0.043489307 0.15089326 -0.2128571 0.17797716
-0.011810364 -0.015505592 -0.20284955 -0.2132668 0.04218274 -0.0135618225 0.26237774 0.3840507
-0.04653754 0.017607586 -0.25083572 -0.4534767 -0.39088956 -0.22299598 -0.0020042981 -0.14745907
-0.34343848 0.099655 0.10506797 -0.052259825 -0.20374726 0.057900697 -0.020228906 0.18702081
-0.03335096 -0.118639395 -0.042635716 0.20976673 0.22250734 -0.062491834 -0.43685856 -0.1763626
0.1957777 -0.14188017 -0.095133916 0.049490742 -0.13042232 0.18301737 0.20340799 -0.10587881

ResidualBlock.0.conv3.conv_layer.bias f4 [32]
00000000: 6ace 9abe 5be4 c8bc 508b f8bc 4fd6 f63c
00000010: 1ca5 963d 7926 5a3e 4f1d 853e 280a 1e3d
00000020: de6f 0dbe 6512 52be e88b 9dbc 113d 84be
00000030: 20bc 173e 02ff 453e 46e7 103e 21b1 1e3e
00000040: dcb6 ff3d 91d4 9d3c 54de 783d f3dd 293d
00000050: 136d 5c3e 985a 9f3b 3c3d 4cbe d6ab 9d3e
00000060: dcaa 743d 33ed 24be a045 d43c 6ac4 7cbe
00000070: c583 dabe de03 653e 5311 813e fd42 c03e
-0.30235606 -0.02452295 -0.030339867 0.030131487 0.07355711 0.21303739 0.25998923 0.038583905
-0.13812205 -0.2051483 -0.019231752 -0.2582784 0.14817858 0.19335559 0.14150724 0.15497257
0.124860495 0.019266399 0.060758904 0.041471433 0.21525984 0.0048630945 -0.19945234 0.30795163
0.059733257 -0.1610611 0.025912106 -0.24684301 -0.42678657 0.22364756 0.2520853 0.37551108

ResidualBlock.0.conv3.norm_layer.weight f4 [32]
00000000: 91b6 803e 148e f73e 80b9 57be 5fb8 043f
00000010: 0885 6f3e 632f b93e d020 043f 54a8 973e
00000020: 6c88 033e 4adc b63e 337b 783e d65e 183f
00000030: a144 fc3e d603 a13e ae7b 0a3f d71a a03e
00000040: 099a 053f 5e76 973e 1f09 4b3e 7741 313f
00000050: 6f0e 013f 2d55 ed3e 2df9 fe3e 6be3 923e
00000060: b113 b53e 7ce7 9c3e 257c 603e 0227 f43e
00000070: ee70 163f b7da 9a3e 8035 79be 0e0d c23e
0.25139287 0.48350585 -0.21066856 0.5184383 0.23390591 0.36168966 0.5161257 0.29620612
0.1284501 0.35714942 0.24265747 0.5951971 0.4927111 0.3144824 0.5409497 0.31270477
0.52188164 0.29582494 0.19827698 0.69240516 0.5041265 0.46354046 0.4979948 0.2868913
0.35366586 0.3064536 0.21922357 0.4768601 0.5876607 0.3024499 -0.24336815 0.37900585

ResidualBlock.0.conv3.norm_layer.bias f4 [32]
00000000: bbe8 973d ad62 e9bd e0e4 da3b 2b60 f1bc
00000010: 01cb a5bd 74d5 c9b9 723e 103e e28f 8dbd
00000020: 572e 1cbe 4e91 8d3d 61b0 afbe ab8d a3bc
00000030: 46e3 633e 23c5 52bd d0d2 303d 092f 9bbd
00000040: 26e0 e2bd efe0 963c 034e 0a3e 5373 0838
00000050: af81 e2bd adff 143d aa76 63bd dde0 9d3d
00000060: be91 eabd 8031 a5bd 985b 30bd 2e92 0fbd
00000070: 93dc c03b b75a 2ebd b4ea 0fbe 6bdc b03d
0.07417437 -0.11395774 0.006680116 -0.029464802 -0.080953605 -0.00038496742 0.14086321 -0.06912209
-0.15252052 0.0691248 -0.34314254 -0.019965013 0.22254667 -0.051457535 0.043169796 -0.075773306
-0.11077909 0.018417804 0.13506322 3.253233e-05 -0.110598914 0.036376644 -0.05553309 0.07708905
-0.11453579 -0.08066082 -0.0430561 -0.035051517 0.0058856695 -0.04256698 -0.14054376 0.086357914
